checkpoints/2022.02.22-22:56:22/best_mean_atomic_component0_model_e46234.pth (torch, 43799 bytes, 6 tensors)

fc1.weight f8 [64, 12]
000000 3a 67 34 50 de 76 ed 3f 4f 94 53 13 c6 dc ec 3f
       0.9207603041170167 0.9019499185057017
000010 ff 19 c7 55 5e bb d1 bf 35 30 29 a3 56 20 e3 3f
       -0.2770610654519316 0.5976975619064492
000020 92 97 42 1f 6d 82 e0 3f e4 96 85 58 2a da d2 bf
       0.5159211741017649 -0.2945657600852043
000030 0e 31 7f b0 f0 f8 c5 bf c5 3b cf 19 68 ef cb 3f
       -0.17165955179223896 0.21824361095647596
000040 16 e4 55 61 df ef c2 3f 81 3b 57 2b 4b 09 d3 bf
       0.14794533016882444 -0.2974422381639031
000050 5d 55 cc 24 76 75 c0 3f 28 cb e4 1e 30 7b d7 3f
       0.12858464047227872 0.3668937970825703
000060 4f 43 ed d8 a5 b1 da bf ab 6f 3f 3b 3a 83 b8 bf
       -0.41709276375063536 -0.09575237223128734
000070 bf 54 c2 fe b1 24 9c bf 0b ed 1e f9 35 3d 80 bf
       -0.027483731436025446 -0.007929250397742857
000080 9f ae d8 58 4b 70 12 c0 47 f7 15 e7 2a 86 d9 3f
       -4.609662426209666 0.3988139397332486
000090 7b 59 5f 12 58 df ca bf 13 19 01 38 b5 dc dc bf
       -0.20994091889469843 -0.45097094029587587
0000a0 7f 44 0a 4f 4a 18 cd bf 95 50 69 26 bc 96 dd 3f
       -0.22730378016834504 0.46232513190376184
0000b0 26 3a b0 94 1f 1e 87 bf b3 74 23 fc d3 94 7c 3f
       -0.011287924504384494 0.00697787100417917
0000c0 6c 66 65 33 15 5e fd bf dd 08 25 39 5d a5 f1 bf
       -1.8354694373760152 -1.1028721077168975
0000d0 d6 62 d5 b9 2c fb 81 3f 78 0a b2 8f 7e 7d 71 bf
       0.008779858990850025 -0.004270071392172718
0000e0 25 ff ee 26 85 d3 10 40 fb d0 9e 7e a1 ba ce bf
       4.20656262239189 -0.2400705211890751
0000f0 39 93 4b fd 46 d1 ac bf 60 2c 09 82 e8 a1 e1 3f
       -0.05628415910704238 0.5510141887438174
000100 e0 fd ff 69 14 39 76 bf b0 09 93 a6 5d fa dd bf
       -0.005425529234343668 -0.4684061171248244
000110 2f c6 ae ec 72 5f 8b 3f 86 2c bb d0 78 17 92 bf
       0.013365648124678746 -0.01766766332620453
000120 ab a1 0f cb ad 49 9c 3f 2f 1e 03 f8 e4 76 ad bf
       0.02762481262098652 -0.057547717356609566
000130 21 c8 60 bd d9 aa f8 bf 44 02 f4 e2 48 e5 74 3f
       -1.5417115590648864 0.005101475441961659
000140 10 e8 c7 a8 f8 6a 90 3f e7 24 31 68 57 17 ed 3f
       0.016033063222472832 0.9090992960929299
000150 71 a8 cc a9 99 73 c5 3f 9b 99 db cd fc da ee bf
       0.1675903395747045 -0.9642318745289232
000160 f6 f7 41 77 ba 40 cb 3f 35 c9 e6 5a 8b 75 f0 3f
       0.21291285346154581 1.0286973524894851
000170 0a d6 29 95 67 cf 85 bf 36 2f 0f cd f3 f1 40 bf
       -0.010649499168020621 -0.0005171242174752736
000180 d0 fc b8 c4 4d 56 89 3f 69 bb a0 9c a4 6c bf bf
       0.012371642652509257 -0.12275151084825854
000190 18 35 85 07 cd d0 c5 bf a0 43 26 3b 32 9b e7 bf
       -0.17043459765628977 -0.7376948504698824
0001a0 28 b8 f1 b6 e7 c1 bd bf cb d7 ce 72 c9 c0 cc 3f
       -0.11624000755702524 0.22463338952883158
0001b0 4c a6 c0 81 1a 6c b7 3f c6 ab da d3 b7 5b c4 3f
       0.09149327914988098 0.15904901356165463
0001c0 fb 3b 89 bd 0e c7 9b 3f 46 3c d4 ad 74 f6 cb bf
       0.02712653190456747 -0.21845873344179462
0001d0 c0 ad 18 eb 02 0d c6 3f c6 4f f4 45 b8 12 e6 3f
       0.17227207640949693 0.6897851339622256
0001e0 c6 b4 b9 fa f9 6d f4 bf 29 4b 95 4e 65 5e f6 bf
       -1.2768497270547399 -1.398045832601108
0001f0 c9 7e 78 f8 16 0c d7 bf 64 2d c2 84 e4 aa d4 bf
       -0.3601128984900979 -0.32293045963952793
000200 5b b2 0d 5c 9a fe f2 bf d3 15 49 07 85 fd c8 3f
       -1.1871589275207473 0.19523680549370556
000210 9f ab 8a 13 ef db b1 bf 0e 01 55 ea 0a 96 ae 3f
       -0.06976217486469104 0.05973848448275208
000220 2d ba c5 8e 5a 94 a0 bf 56 24 ca 83 60 53 a5 bf
       -0.032381849220531535 -0.04165174111137364
000230 cb 39 21 13 6c 2a b3 bf 03 c4 9f 65 ac 50 eb bf
       -0.07486606089626162 -0.8535978302808193
000240 63 46 8e 6b 12 38 fa bf 04 02 b1 46 0e b8 f5 bf
       -1.6386894418141302 -1.3574354897865542
000250 f0 24 e6 37 e8 4d ed bf 45 aa 73 39 66 20 e3 bf
       -0.9157601444032064 -0.5977049944024847
000260 e8 b4 b4 6c 88 11 d2 bf a5 89 ad d7 0e a5 c1 3f
       -0.2823201238232529 0.13784966975351867
000270 34 27 d7 34 25 48 bd 3f 3c 5b 42 ac 03 6e b4 bf
       0.1143821004872308 -0.07980368571803081
000280 ed ff 7e d0 d5 df 95 bf 68 3e 18 81 7f be bc 3f
       -0.021361676073638525 0.11228176976896409
000290 75 76 bf b9 43 f7 de bf fd df a8 9e ce 19 d6 3f
       -0.48384183062976344 0.3453251408968752
0002a0 f7 77 2a 06 86 5e ee 3f c3 9e 94 70 02 df bd bf
       0.9490385170390699 -0.11668410538242839
0002b0 5e 8b 2d d4 0a 4a ca bf 1a 66 da ca 71 1a d7 3f
       -0.2053845916771832 0.3609890442836289
0002c0 17 2d 79 05 f3 c9 f7 bf de 47 f8 d0 7e c3 e6 3f
       -1.486804028873683 0.7113641816561047
0002d0 ce 0a b1 9a 74 1b a6 3f b3 ed 6c ea 51 82 eb bf
       0.04317821873020976 -0.8596582010863386
0002e0 c7 40 eb e2 fb d9 c1 3f 49 de 42 54 03 c8 e3 3f
       0.13946484165217596 0.6181656499601981
0002f0 69 e9 ba 1d 64 92 b2 3f 3b 1a b5 0f 0b 81 e2 3f
       0.07254625058968646 0.5782523447786113
000300 8e 65 3d 6e ea 74 ff bf 57 d8 85 ee 94 4e e8 3f
       -1.9660438829654114 0.7595925005578107
000310 8a c5 c0 2f 59 83 e7 3f 8b b8 f9 85 ef 5d c3 3f
       0.7347837383915004 0.15130418817301847
000320 b2 ab cb 2c 9c a8 e8 bf 25 96 93 d2 42 cf ea 3f
       -0.7705822825349655 0.8378004181692559
000330 1f 62 80 e6 3e 1f c0 3f e4 78 13 ec e7 6f f1 bf
       0.12595354323345107 -1.0898207875939585
000340 51 94 9c d1 a1 a1 bd bf 4e 70 e0 bd 6c b4 eb 3f
       -0.11574756019088396 0.8657745083360255
000350 c4 71 02 ff 08 bb e2 bf cc da 11 6a b6 c9 db 3f
       -0.585331438127064 0.4341865573727943
000360 fd 43 f7 e9 ba 3b f0 3f f9 36 4c 17 69 11 b7 bf
       1.0145825518886789 -0.09010941332618562
000370 aa 1c 08 e8 16 c6 f0 3f 6a b8 d1 df f3 86 82 3f
       1.0483616889703549 0.009046464221878565
000380 b8 d9 2a 55 87 83 be 3f 18 bd 59 29 c4 87 e5 3f
       0.11919446782380916 0.6728230292918935
000390 e9 4f af 22 6c cb c5 bf a3 f7 28 42 8f ef f0 bf
       -0.1702704591140212 -1.058486231267559
0003a0 9b de cb c4 ed 58 be 3f 93 c9 90 b9 f1 eb e4 3f
       0.1185444455585362 0.6538017868354465
0003b0 22 67 f9 6f 99 fa 9b 3f d5 a4 49 4f 83 c6 c7 bf
       0.027323148211826916 -0.18574563380688028
0003c0 7c 30 9c df 30 49 f0 3f 5f fe b7 22 2c 4c ed 3f
       1.0178688750047789 0.9155483892536259
0003d0 25 23 fe 95 1b d5 d4 3f ac 2a 71 e5 ec 8c d8 3f
       0.3255070652744954 0.38360140234423556
0003e0 26 06 17 af 30 3f e0 3f 6d d1 c3 ce 0b 69 c5 3f
       0.5077136440015166 0.16726825328772624
0003f0 8f 81 51 4c 42 75 b4 3f c5 1c 9f 53 cf e8 df bf
       0.07991422999612595 -0.4985845867744952
000400 a5 99 02 46 5a 99 c6 bf fc e6 57 30 13 25 b8 3f
       -0.17655495089020437 0.09431571893938079
000410 27 fd f4 10 8b cd b0 3f 0a aa e1 9d 21 33 de 3f
       0.06563634075154266 0.4718708078204662
000420 73 69 22 36 ff c5 ed 3f fe 6f 50 8e cf cf e6 3f
       0.9304195458710595 0.7128675250601189
000430 79 ca 2b 53 9f db e1 bf 41 f7 63 31 d9 2c c3 bf
       -0.5580593704638225 -0.1498061648525724
000440 1a 68 87 ec a2 b3 c6 3f 32 94 bd fc 74 f4 bc 3f
       0.1773570685316493 0.11310511751578714
000450 4a 58 a0 d2 ab f4 ce bf 5e 2b 8a 62 57 80 d6 3f
       -0.24184177193154915 0.3515833341886515
000460 dd a0 6d 99 11 6b cc bf 98 33 5d 47 fd 84 d3 bf
       -0.22201747886288717 -0.3049920269884807
000470 c1 80 bd e1 f5 56 c2 3f 60 06 a6 20 d1 79 d5 bf
       0.14327882311318343 -0.3355601137955997
000480 ec f3 99 9a 26 05 ba bf 20 f1 19 ab a7 db ca 3f
       -0.10164109491775236 0.20982833723599814
000490 21 d0 e5 94 b8 0d db 3f a0 61 1c ac ef 63 b5 bf
       0.42271246472160057 -0.08355615569997221
0004a0 b4 06 85 77 e2 10 eb 3f 8a 36 70 aa bb 35 e0 3f
       0.8458111128204195 0.5065592125772167
0004b0 c7 20 0f 80 87 44 c1 3f 97 6c 39 d8 7b 65 e4 bf
       0.13490384819875187 -0.6373881552821271
0004c0 11 38 6b a8 29 13 c8 bf 58 9c 44 dc 5a 78 d5 3f
       -0.1880847999913731 0.3354708815626899
0004d0 ea 1d a4 c1 73 c5 b5 3f e0 41 a6 2a a1 d3 8a 3f
       0.0850441310650393 0.01309896384626169
0004e0 9f 8b a5 e0 99 7e d6 3f 02 cd 8a c3 7a 50 c8 3f
       0.3514771169486099 0.18995604083975343
0004f0 9e ad 58 fe 22 49 e5 3f b1 45 96 85 3c 01 94 3f
       0.6651778190329656 0.019535966542724107
000500 ab a4 99 56 4a 41 02 c0 ac 6d e9 ca 6c 16 cd 3f
       -2.281880070270366 0.22724685581020532
000510 23 59 90 6a da 07 d0 bf d0 63 b6 f6 a8 c9 e7 bf
       -0.2504793205893227 -0.743366700992846
000520 3d 0e 76 71 d5 7f b6 3f ce 95 5f c3 ac cf e6 3f
       0.08788808841750835 0.7128509345899887
000530 2b 7a ff 51 cd 9d b1 bf 54 ff 89 f4 c9 6e b0 3f
       -0.06881411792662877 0.06419050426665979
000540 dd 42 b0 ca 4d cf a9 3f f3 1f 3f bb 70 a5 b1 bf
       0.05040972804284192 -0.06893066951226938
000550 a5 51 93 77 0d 73 f5 3f e9 b7 01 dd d1 25 7f bf
       1.3405890150944313 -0.007604427126450355
000560 c5 b8 70 b9 a9 3b a2 3f be 71 27 dc b9 16 ee 3f
       0.03561144245792173 0.9402741718181955
000570 f9 df 81 46 2e 5f a1 bf e0 e0 f3 b6 07 5b e2 bf
       -0.033929296595431375 -0.5736120770734736
000580 2f 24 4d e2 ed de c0 3f 3c 6f db 77 f1 c4 ee 3f
       0.13180326032514375 0.9615409222564959
000590 0d 04 00 09 51 b2 6e 3f 32 2c 3d 5e c8 5d 59 bf
       0.003747137328901312 -0.0015482384414606917
0005a0 66 91 0c bd 58 38 c5 3f f3 49 f5 28 96 64 80 bf
       0.16578206282532476 -0.008004353642410122
0005b0 88 ac 32 66 9f 40 d0 bf fc 4d a9 bd 81 6e f1 3f
       -0.2539442537333305 1.0894791992803894
0005c0 aa 82 b3 ba fc 26 93 bf c7 b2 10 f8 b8 1d c0 bf
       -0.01870341195615547 -0.12590705978927572
0005d0 a8 75 05 2d 3f 91 c2 bf 44 95 d4 c8 b5 17 b8 bf
       -0.14505757997805557 -0.09411178734861375
0005e0 32 74 08 4b d0 d8 c2 3f fb 06 27 a3 2c 8d a4 bf
       0.14724162734720064 -0.04013957492453631
0005f0 93 92 91 4b 4e 1b d2 3f f1 db 99 be 5e a8 f0 bf
       0.2829166162467029 -1.0411059804298441
000600 48 92 9b 0e 7d 80 e3 bf b5 93 5a 6d 8f bc a7 bf
       -0.6094346318537385 -0.04636047563443616
000610 bb 60 c0 eb 4d 51 f4 3f 02 83 62 dd be 6d 77 3f
       1.2698497017900496 0.005719895902217999
000620 3e bc 4b 1e 6d 60 87 bf 22 71 2b 20 f5 cf ed 3f
       -0.011414387213760088 0.9316354397119861
000630 47 4b f2 c1 6e a3 c2 bf 98 72 40 96 1b f9 e6 bf
       -0.14561256856958435 -0.7179086622814621
000640 21 e4 39 63 94 e3 bf bf 16 a6 25 dd f9 14 e7 3f
       -0.12456633970749965 0.7213105506209014
000650 fc 85 89 7e a6 82 87 bf 34 9e 2e 74 ea bd 80 3f
       -0.01147966455136195 0.008174735708805426
000660 53 6e 78 b0 5f 54 73 bf b7 02 26 0c 04 79 21 3f
       -0.004719136988139266 0.00013330625922593705
000670 f0 ab 64 11 cc bf 17 bf 49 a0 6d 9b a1 72 34 3f
       -9.05960372149931e-05 0.0003120083378491718
000680 5c 8b 08 ca cd 6c 17 40 d0 37 4e 51 a7 75 d0 bf
       5.856253773471362 -0.257181004905644
000690 7e ce ec 3e 10 e0 81 bf 69 bd 9f c0 c1 4f d1 3f
       -0.008728148384398834 0.27049297152458124
0006a0 62 71 95 df 77 b5 a9 3f 15 b0 33 3c b9 35 de bf
       0.05021261791509592 -0.47202902678577746
0006b0 24 90 41 ec f6 7a 18 3f 88 df fa 24 d8 71 1b bf
       9.338504884365322e-05 -0.00010469323864980954
0006c0 a8 05 af 6d 96 31 e5 3f b6 10 a3 89 3a 0b f5 3f
       0.6623031751880051 1.3152413727230345
0006d0 5f cb 3d 80 ab de d3 bf 8c 32 b7 55 92 42 9e 3f
       -0.3104656936986227 0.029550825578371007
0006e0 5f 14 68 c6 87 e0 f0 bf 0f 9e 2e 09 b7 81 af bf
       -1.054816985154751 -0.06153652178846524
0006f0 fe 4c eb b5 81 da d1 bf ee 2c f4 23 ac 03 8f 3f
       -0.27896158948460925 0.015143723342154716
000700 fd e3 e4 ff 45 36 c0 bf 12 39 8e d6 bc 01 ce 3f
       -0.1266562938197068 0.23442802883477803
000710 d1 32 1e f1 45 18 dd bf 3d a3 97 d0 38 86 ee 3f
       -0.45460651919056 0.9538845132893595
000720 b6 8b 08 3d 98 f2 76 bf 6e 9c ba 8a 2f 86 a5 bf
       -0.005602450066848277 -0.042039380726515016
000730 00 a1 cb eb 77 bc f0 be ae d8 82 36 1b f5 42 bf
       -1.5960888719941148e-05 -0.0005785353541998461
000740 5c 85 c0 9c fe 55 1a c0 cd 4e bc 9c 55 38 d4 bf
       -6.583979081392808 -0.3159383803006051
000750 97 2b d2 94 d7 73 d1 bf cd e3 23 fe 32 c1 d0 3f
       -0.2726954415635929 0.26179194277170553
000760 c2 43 5a 47 6e 2a ce 3f a9 92 d4 b6 64 e1 e0 bf
       0.23566988452924248 -0.5275138445764088
000770 ee 1a 85 4e 2a c7 1d bf 86 5e b5 d4 f5 ff 25 3f
       -0.0001135940143558269 0.00016784549584757477
000780 95 b5 5f 49 13 9d fe bf 2a e3 7a b8 3d 70 00 40
       -1.9133484712759572 2.0548052227499243
000790 22 70 aa 8e 45 9e c9 bf 32 43 9d 2d 38 90 e9 3f
       -0.20014256921865675 0.7988549128441262
0007a0 da 97 f4 56 10 f6 e2 3f 92 8d 04 2f ed 09 ec 3f
       0.5925370882366636 0.8762117307964437
0007b0 90 7b 18 0b 6e 65 b5 3f ad 7e ea 62 39 91 ed bf
       0.08357894678964173 -0.9239775592759166
0007c0 ab 63 e6 fe 60 2c b3 bf b9 f3 6f 5e 30 b7 e4 3f
       -0.0748959181131698 0.6473619312742961
0007d0 f1 3e 60 6b d1 26 dd 3f bf 7d e3 14 49 e7 d7 3f
       0.4554942654221881 0.37349154510408406
0007e0 1f 79 fc af 2f 70 77 3f e3 fb e3 3e 2b 7c dc bf
       0.0057222235480181285 -0.4450786699453017
0007f0 2c 0e a4 b1 f4 28 64 3f c9 19 bb 69 02 6e f5 3f
       0.002460935514251769 1.339357769976788

fc1.bias f8 [64]
000000 50 ec 94 27 11 ce a8 bf dc af 59 76 af 6a d8 bf
       -0.048447166520838025 -0.3815115600361858
000010 0d 69 2b 57 0f 02 d8 3f 6c a4 2b 2f 22 06 e3 bf
       0.37512572777417647 -0.5944987222002402
000020 30 b8 6f 56 1a e1 b2 3f e9 01 37 b9 5e 3b bb 3f
       0.07374729738487029 0.10637466451499446
000030 11 30 da 5f 12 2a ba bf ab 31 43 d2 49 4e e1 bf
       -0.10220446434158272 -0.540806685131931
000040 07 f3 d7 66 cc c3 e7 bf 51 06 30 27 b9 c8 e4 bf
       -0.7426511772788168 -0.6495023503668539
000050 06 8a ee df 44 ab a8 bf 48 93 e8 90 76 19 ce 3f
       -0.04818167909185793 0.2351520736275694
000060 42 a8 ec 8a 92 be df bf 85 70 07 26 cb ef e0 bf
       -0.4960066181835182 -0.5292716734652606
000070 ae 0e 6d bd 30 93 ee bf fa ed ee f8 94 0e c3 bf
       -0.9554675769545236 -0.14888250498721317
000080 97 0f e3 07 18 14 ea bf 55 dd 10 ea a6 16 d4 3f
       -0.8149528650323984 0.3138825689124663
000090 e5 56 5c e0 1c 0e c8 3f 0a 6f 45 c7 3e af dc 3f
       0.18793068842995023 0.44819611988144514
0000a0 7c 8b 0f a0 2d c5 e3 bf b0 26 08 a2 9d 0d e5 bf
       -0.6178196073709468 -0.6579120793041593
0000b0 b8 be 30 51 f9 6f dd bf dc 27 b2 fe 49 f1 db 3f
       -0.4599593441844081 0.43660211441658503
0000c0 c5 1c d1 3f 0f a5 d5 3f 21 91 f6 3d cc 18 e1 bf
       0.33819943649400513 -0.5342770776956379
0000d0 0e fc 23 20 cf bd dc bf cb c6 67 64 63 82 dd bf
       -0.4490850271103576 -0.46108326726162535
0000e0 a9 51 c0 1e 7d 75 be bf c5 7a 1f ec e6 c3 e0 bf
       -0.11898023606074183 -0.5239138232971859
0000f0 c4 d5 4d 3b b2 3e b7 3f 7a 70 e1 1a e3 b0 c3 bf
       0.09080041835644354 -0.1538356667759933
000100 d9 ff cc 28 8d af d4 bf 4e 67 7d c0 aa ea ab 3f
       -0.3232148073620898 0.054524742123887124
000110 5d dc 22 e5 eb c1 c5 3f b7 cb 47 49 a1 52 d9 bf
       0.16998051346101564 -0.39566833645147476
000120 f3 0d fb bb c3 45 ee bf 07 a4 d5 28 59 04 e9 bf
       -0.9460161849496543 -0.781780795817327
000130 9d 64 f7 1f 5e c1 e4 bf 09 77 57 b7 6c de da bf
       -0.6486044525473919 -0.41982572464426987
000140 dd 80 f5 e8 fd ec e8 bf aa 9e 89 b9 d5 76 b1 bf
       -0.7789296674709721 -0.0682195260975457
000150 05 ee 93 38 96 36 c0 3f e1 a3 a2 da 61 f4 cd 3f
       0.12666585695829738 0.23402045417358777
000160 b7 b1 c5 93 8f 74 d1 bf 59 20 00 9d 14 de 87 bf
       -0.2727393096054373 -0.01165405372741206
000170 78 5b 5b 85 f2 44 e5 bf d0 be f7 ea 7d ef d0 bf
       -0.6646664242388018 -0.26461742349691253
000180 98 77 a4 4d 6b 64 e3 bf 5e 50 64 03 db 84 d3 bf
       -0.6060081974462603 -0.30498385745273093
000190 f5 2b 4e 0c 7d 3c e8 bf ba 63 9f 96 a9 4e d1 3f
       -0.7573838463152912 0.2704261752056102
0001a0 fd 87 09 72 f9 fd c2 3f 24 16 2d 5d d2 1f e5 3f
       0.14837568348144706 0.6601344890447689
0001b0 1b 55 f9 db 10 05 ea bf 2d f3 ec 70 e9 a8 e0 bf
       -0.8131183906904512 -0.5206191258981555
0001c0 f5 30 4c f0 cc 5b ba bf 1b 67 25 f2 9b c3 dd 3f
       -0.10296326510087168 0.46506403586464423
0001d0 a4 c1 14 8f 65 ed c9 bf 46 e5 5f 6f 7b 90 f0 bf
       -0.2025572727811894 -1.0352739668436057
0001e0 ca 74 ef e1 d0 be c6 3f 6b ea 64 a4 bb 12 b7 bf
       0.1776982405853345 -0.09012959254770585
0001f0 c7 ac 58 aa a5 63 d5 bf e4 00 47 ba f9 62 a6 3f
       -0.3342069781817369 0.04372387312787554

fc2.weight f8 [64, 64]
000000 e0 c5 25 0d c8 22 ca 3f 6c d6 e6 38 a1 1c e4 bf
       0.20418644563646549 -0.6284948455201635
000010 49 c0 33 d4 40 10 f5 bf 57 ca c0 17 de 79 ec bf
       -1.316468075670871 -0.8898764099051942
000020 64 fd 7f 92 c6 5f f1 bf 21 f7 8a bb b9 c8 e7 bf
       -1.0858827326445288 -0.7432526267000165
000030 f4 75 06 2b f5 ab fd 3f 5d 8a b7 07 8f 75 04 c0
       1.8544818573640187 -2.5574017146002874
000040 14 a2 5b 72 f4 71 10 c0 95 0d 24 5a 11 67 06 40
       -4.111284052698938 2.8003260652782935
000050 59 88 6e c0 3d de d5 3f 28 67 67 23 1e 3a ad bf
       0.3416895274368748 -0.057084028074042614
000060 30 cb 9b 59 e9 24 03 40 5d 99 e1 fc 6e 02 fa bf
       2.393023204867312 -1.6255941274808585
000070 0f 5a 6f 30 6a 0f 05 40 f0 92 c9 25 b5 38 e3 3f
       2.6325267585737104 0.600672315410149
000080 51 6c d3 37 e8 59 ef 3f 9e cb c3 51 74 10 d1 3f
       0.9797249880169919 0.26662929520460377
000090 d8 1c 20 74 b7 8b d2 bf c6 5b d3 15 f5 2c f2 bf
       -0.28977762546896946 -1.1359759190142866
0000a0 3c a6 42 39 c8 dd b4 bf 90 2f 88 0a 46 e6 e9 3f
       -0.0815091266437315 0.8093595700934078
0000b0 78 63 0a cc 82 e0 e5 bf db 45 df f6 0f 5c e1 bf
       -0.6836561188857635 -0.5424880811426037
0000c0 0a 8c 86 87 e1 a2 db bf 3f e3 79 4b 6f 6b 0b 40
       -0.43181646571082466 3.4274583717891853
0000d0 11 0b fa c3 5d de d0 bf 61 fe e7 d5 ff 36 fc bf
       -0.26357216013291046 -1.7634275775634694
0000e0 76 a2 c3 77 d8 b8 e6 3f 38 d1 80 e6 37 2a ee 3f
       0.7100641574043738 0.9426536085143544
0000f0 d8 b0 3c 9e 71 ff eb 3f 76 4a c3 92 a8 6c df bf
       0.8749321070258942 -0.491006987879849
000100 84 81 94 14 39 6c 03 40 ab 11 70 83 bb 6b d6 3f
       2.4278432472057734 0.35032546840400397
000110 43 b8 b9 23 f0 b1 ba bf f9 fe d8 55 96 02 ff 3f
       -0.10427761909679227 1.9381316522048435
000120 7d 81 90 eb ab 59 fe 3f cb e3 c6 1c 59 41 ed 3f
       1.896892471479162 0.9142270624207581
000130 55 74 72 b2 04 25 f1 bf 02 88 bc e4 fc 6b e1 3f
       -1.0715376825894698 0.5444321124562068
000140 97 00 50 47 35 14 dc 3f f8 38 ca f8 05 c7 e5 3f
       0.43873340572464187 0.6805448397806506
000150 23 db 17 b3 0c 29 eb 3f 72 0b 5c 7e fb dc e0 3f
       0.8487609384454554 0.5269753902397112
000160 15 e9 5f ad 99 71 c6 3f 95 5f 36 a5 25 c0 e0 3f
       0.17534180608328911 0.5234554507069215
000170 c7 89 38 7f c2 a5 f4 3f ee 73 ea a8 c2 b9 d0 3f
       1.2904686898769897 0.26133791442572274
000180 e9 ac 1d f1 8f fa 1e c0 70 c4 05 a0 a4 43 c9 3f
       -7.7446897196161695 0.19737680257415802
000190 34 e4 8d 95 4d 95 00 40 92 6c b8 fb 04 11 e1 bf
       2.0729018863608193 -0.5333275715269272
0001a0 13 e2 8c c9 cf 57 d2 bf 0b 48 8f 1a 02 d4 e1 3f
       -0.28660959894799126 0.5571299093955998
0001b0 5a b0 5c 91 c4 fc f5 3f f0 a6 01 eb bb 57 e7 bf
       1.3742108991819095 -0.7294597234697147
0001c0 b5 9c 40 79 8d 02 d7 3f 26 54 94 d0 39 0d c9 3f
       0.35953080025724243 0.1957161205724855
0001d0 77 6d a8 bb 4a dd dd bf 2e f4 0a ce a8 34 0f c0
       -0.466631587276161 -3.900712594708714
0001e0 66 2f 6f 0d ae 4f e3 bf f2 4a 40 b6 46 a1 df bf
       -0.6034765493763927 -0.49421851919139137
0001f0 62 a8 75 98 c0 4f d9 bf 6e 61 f3 17 49 31 d2 3f
       -0.3954926957000052 0.28425814951835704
000200 e9 38 49 fe e7 5a ca 3f ce 27 2a 22 db f4 e5 3f
       0.2058992377882938 0.6861396472243031
000210 70 e0 ad c5 36 a9 c9 bf 35 08 32 e0 46 5e 19 40
       -0.20047650005631423 6.34206724458095
000220 8f 3d 01 b5 26 50 d4 bf 26 0a fb 0a 52 fc c5 bf
       -0.31739204097990464 -0.1717627099624945
000230 3f 92 22 67 55 56 c2 3f 4a d1 6e f0 aa 6c 02 40
       0.1432596925343592 2.303060415632136
000240 01 4d 0e aa ce 17 fc 3f 2a 47 f3 c4 f0 e5 13 c0
       1.7558123247916344 -4.974551274631986
000250 9e ee d0 e6 21 00 f6 3f 88 96 b7 87 61 2d dc 3f
       1.3750323311095722 0.4402698350298597
000260 5f f1 78 14 fa 87 02 c0 69 0f fb 8d 5f 39 06 c0
       -2.3163949584397154 -2.7780142872087947
000270 24 ad e9 c2 64 79 3c c0 fd af b9 a9 cd f0 d6 3f
       -28.474193746614347 0.35844747137775795
000280 40 da 66 a0 95 6a 3c c0 ff ad 1b ac c5 ec e5 3f
       -28.4163456202607 0.6851528512465278
000290 e6 96 74 a3 e6 2f df bf 2f ce e1 05 78 44 f3 3f
       -0.48729864084667296 1.2042160253303213
0002a0 6b e8 f7 c0 82 88 d8 3f 0a 3f 6b a5 c7 a8 c2 3f
       0.38333195538110115 0.1457757528028128
0002b0 8c 53 9b 11 ef fc e7 3f 1c 69 89 11 cc da d4 bf
       0.7496257156259261 -0.3258543177850173
0002c0 fe a0 1f d6 59 4d b8 3f 6e 1b 35 85 0e 61 b3 bf
       0.09493028142572155 -0.07569971801886563
0002d0 52 1e 57 35 81 e2 eb 3f 7b 94 ed 8c c4 7d d9 bf
       0.8713995019724712 -0.39830125582222536
0002e0 ae 61 88 1a 7f 1e d5 3f b8 76 0d f1 f9 a3 d7 3f
       0.32998635855758607 0.3693833211926676
0002f0 36 7f 7d e4 6e d8 d4 3f 4f c6 07 be b1 fe db 3f
       0.3257100325918033 0.43742030675557414
000300 d3 25 14 07 a8 ec d6 bf 0f 00 0d 9a 14 67 d7 3f
       -0.3581943577888442 0.3656665329363031
000310 35 b8 ac 94 cf ec aa 3f dc 10 8c b4 de 77 03 40
       0.052587973498120645 2.4335302453274448
000320 0b 90 46 34 df ae e2 bf 41 2b 42 9b 2a 4e f5 3f
       -0.583846666432238 1.3315836014541704
000330 e7 2e 35 31 3e d1 e0 bf c8 c9 73 19 1c da d9 bf
       -0.5255423508728797 -0.40393736348701426
000340 65 8c 09 28 33 24 02 c0 3b d9 50 30 90 34 d1 3f
       -2.267675698081393 0.26883320539799954
000350 7b 33 07 8e 51 c0 c0 bf f4 d5 e4 64 ad 2a ab 3f
       -0.13086909708945513 0.05305997711768021
000360 a5 5c 50 f5 06 66 f3 3f 14 48 e6 43 9e 12 d0 3f
       1.212408979661441 0.25113636618436996
000370 25 96 fc 38 2a ea d8 3f 69 36 ab 8d 1d a8 d3 3f
       0.3892922932157908 0.30713595232814456
000380 e0 0c 30 3e c8 aa e8 bf ed d7 1f 0b 23 6d c8 3f
       -0.7708474363902518 0.19083059352095635
000390 5a 5a eb 96 75 a0 2e c0 c4 97 d2 86 9e 40 86 3f
       -15.313397136907202 0.010865438928089229
0003a0 ad 1d fb 62 16 6f d8 3f 14 7c d7 40 0e a6 ba bf
       0.38178023973565695 -0.10409630854654522
0003b0 0c fb 5d db 36 a7 37 c0 3a 24 f4 bb eb c9 d1 3f
       -23.653180799908156 0.27794926981784196
0003c0 13 73 a0 ac ae bf dd bf dd 31 e8 a1 76 97 b0 bf
       -0.4648243604477084 -0.06481114819343455
0003d0 2d 27 be 77 f3 55 84 bf 48 51 e0 29 37 f7 d4 3f
       -0.009929563609847836 0.3275888356158885
0003e0 95 eb ae 24 b9 8f a9 bf 67 d6 75 96 3f 52 ac 3f
       -0.049924646118106576 0.055315005413757494
0003f0 c7 7c ac b9 a8 ed bd 3f d5 26 5e af 06 86 d0 3f
       0.11690763981868023 0.258180304772947
000400 15 51 fc 19 98 9e bd 3f 82 90 e3 48 41 27 da bf
       0.11570120462812768 -0.40864593618449174
000410 7b 68 34 b4 18 8a e0 bf 59 2a ea c8 3e 8d 10 40
       -0.516857482874243 4.137934817592929
000420 e1 6c d3 24 15 1f c5 bf 36 12 f6 4a e9 63 e0 bf
       -0.1650110654653423 -0.5121962036215055
000430 b6 60 8c 2a 28 a0 b1 3f fe 8d 49 a3 a8 aa e1 3f
       0.0688500503423509 0.552082365913918
000440 73 a7 94 0d cc 79 df bf ed e7 b9 eb ec be d7 3f
       -0.49180890394438065 0.37102816600929495
000450 db 70 e5 21 2b ce d7 bf 54 b8 68 6a 19 cf c5 bf
       -0.37195852575474725 -0.17038266845469485
000460 b2 c8 5d 55 00 a0 fd 3f 55 35 9f af a6 7a f6 bf
       1.8515628180144117 -1.4049441204291118
000470 de 10 13 54 cf d6 08 40 35 0d 9a 55 b6 19 a5 bf
       3.1048876350706527 -0.04121179385131272
000480 1b 63 3a f5 54 eb 00 40 40 b9 d7 45 0a 8e f6 3f
       2.1149081381266917 1.4096777656773867
000490 1e 2b 15 e4 90 b4 e1 3f e0 c4 85 0f b9 80 f9 3f
       0.5532917456378958 1.5939264875744854
0004a0 53 aa 05 09 a6 bf d3 bf 65 da 38 06 2a 18 f3 bf
       -0.3085723007303944 -1.1933994525003524
0004b0 c0 07 2e 34 7a f3 ee bf b2 cf 8d 98 ef f7 df bf
       -0.9672213572632629 -0.49950780771109315
0004c0 f5 71 38 fc d6 05 ac 3f 3d ed 21 cc bf 2a e4 bf
       0.0547320540319766 -0.6302184092486766
0004d0 a4 d1 c8 d1 7b 6c c6 bf d7 78 20 2a de e9 d4 3f
       -0.17518565886861126 0.32677415956449124
0004e0 d4 42 1b 94 91 e3 c4 bf 91 9f a6 2b fd 28 05 c0
       -0.16319484454881794 -2.6450141344284437
0004f0 ec 49 40 f4 61 b2 c3 bf f5 ae fa e6 22 22 b9 3f
       -0.1538813059456311 0.09817712916509065
000500 88 bc ed 25 df 32 f7 bf 44 d7 b1 ce 35 7e 92 bf
       -1.4499198419178203 -0.018059578648226507
000510 4a 2f cc f0 f1 b1 a0 3f 34 84 70 9c 39 02 fc 3f
       0.032607613224256385 1.750543223468651
000520 3e c1 59 24 9a 8b c7 3f f4 ac fb 55 ba 08 f2 3f
       0.1839478185170353 1.127130828734889
000530 61 4e c2 e3 83 fa e7 3f 8c 1c 4d dd 8b 01 d4 bf
       0.7493304680269369 -0.31259438144156415
000540 2e f5 87 78 5f a2 f1 3f a9 40 27 e1 29 2c c9 3f
       1.1021418293233398 0.19666026586356125
000550 e2 cd 67 19 b6 d7 94 3f ed 5a 37 69 17 3f b1 bf
       0.020354123402240527 -0.06736894911533016
000560 4c 45 47 62 fe a9 c1 3f 34 bb bc 11 3c 9c b9 3f
       0.1380002956271177 0.10004020150220755
000570 66 8d 19 03 0b d0 b2 3f f0 3b eb 10 08 a3 e2 3f
       0.07348698449782418 0.5824013071486416
000580 fb 84 2a 8b f7 93 f3 bf bd 6e 67 c4 6a 43 94 bf
       -1.2236247478652433 -0.019788425672102806
000590 b3 36 d2 8e 6b fb 0c 40 2b d1 af a8 de 51 b3 bf
       3.6227637441541787 -0.07546798342065546
0005a0 80 d8 08 a8 56 1e d6 3f 8d 42 ad a2 6a 53 e0 bf
       0.34560171517967575 -0.5101826836854159
0005b0 93 b0 6e 8c 28 49 19 40 8c ed 40 84 74 a9 e4 3f
       6.321443742996183 0.645685442264424
0005c0 19 02 da d8 11 6d aa bf fe 30 c1 4a 87 d1 c4 bf
       -0.051613385888235004 -0.16264430189256268
0005d0 a6 8d 7b 51 ae 75 d2 3f d0 0e 0d 83 3b ae 10 c0
       0.28843267400062655 -4.170148894950856
0005e0 32 c2 d3 9d 8a 23 dd 3f cc 24 63 81 5b 3d c2 bf
       0.45529427922068344 -0.1424974805616216
0005f0 66 06 24 e7 05 46 ca bf f8 ce 56 fd 14 41 bb 3f
       -0.2052619341484842 0.1064618223670627
000600 1c 8f 9b 73 af 96 9d bf ce c3 2d cc df 2d eb 3f
       -0.028895131522303705 0.8493498790613729
000610 a5 45 7b ee bf ba c0 bf b7 71 34 3d 51 f6 27 c0
       -0.13069914955717113 -11.981088555004005
000620 b6 62 56 d3 b7 9d e2 3f 91 a2 76 5c d2 50 c5 bf
       0.5817526939091155 -0.16652898325743995
000630 c9 c0 4b 78 c9 dd e0 3f 7b 56 a1 15 df a7 ce 3f
       0.5270736073998928 0.23949802929080363
000640 c2 d2 c9 81 b5 ab d1 bf e0 97 01 57 74 ff d8 bf
       -0.2761052863564083 -0.390591702429786
000650 47 2c fa 01 33 67 d8 bf 5f bd 12 24 0c bb c8 bf
       -0.3812987822827307 -0.19320823441874332
000660 cd aa 51 8f a9 aa c0 bf 53 d2 46 f3 a2 43 ef bf
       -0.13020820138929992 -0.977006411695195
000670 f3 78 42 2e d4 7d 17 40 d2 d5 62 89 31 cd d0 bf
       5.872879717642934 -0.2625240174923792
000680 0b 88 ff e6 0a 1e f3 bf 59 99 7c 4f 26 00 ea 3f
       -1.1948346160284042 0.8125182678675557
000690 32 24 16 d2 5e 85 d5 3f ba 6f 1f cb 42 f7 ec 3f
       0.3362652827859761 0.9051832167856368
0006a0 d5 ce 5b 51 38 9a e0 3f 77 fd 53 c6 15 8a ea bf
       0.5188256825481071 -0.8293560861201702
0006b0 ba 29 f6 6d 9d a0 da bf 85 b7 e7 13 2a 01 c9 bf
       -0.41605315912661534 -0.19534803363734113
0006c0 42 f3 fe 20 38 d8 d0 3f e4 2c 09 71 2d b8 c6 bf
       0.2631969759202556 -0.17749565142944512
0006d0 1d 51 04 10 ab e6 e0 bf 9c 28 28 1b e2 a5 c4 bf
       -0.5281577408627843 -0.16131235433596636
0006e0 11 9d e6 06 ec 24 d7 bf e5 43 76 a6 30 da f8 3f
       -0.3616285388365706 1.5532690527363624
0006f0 42 dc 3f 2d fd dd c0 3f 8e d1 55 d1 18 71 b8 bf
       0.13177456578680063 -0.09547572241519317
000700 b5 ec 10 aa 36 b1 e5 bf 57 51 69 f1 0d 52 af 3f
       -0.6778825112918613 0.06117290088573906
000710 80 a3 f7 7e a5 ea a6 3f 1d 2b 75 78 21 03 f7 bf
       0.04475896048445005 -1.438264341867302
000720 39 88 d0 f0 44 4e d1 bf e2 9e ea e5 c1 2e dc bf
       -0.27040217892693225 -0.4403538460996811
000730 d2 42 98 02 0e 55 e0 bf 7c b9 42 36 6a ba c1 bf
       -0.5103826571158498 -0.13850143098302314
000740 06 f2 70 d2 36 b3 fc 3f c7 0a 73 24 e4 6d d2 bf
       1.7937534542426206 -0.28795722541341856
000750 19 85 d6 11 d5 48 d0 3f ee 09 c9 33 a0 04 b5 bf
       0.2544453310202513 -0.0821018339566206
000760 a5 7e a0 0a a5 50 db bf e9 4f 5b 9b fd 95 e1 3f
       -0.42679716146265384 0.5495594057379068
000770 3f 5c d6 1f 96 25 f1 3f 5b 67 11 5e 2f a7 d6 bf
       1.0716763728758136 -0.3539541643746042
000780 bc ed 8c 0b e8 3f e4 bf b4 17 a8 47 86 91 c7 bf
       -0.6328010774226906 -0.18412855624063484
000790 d5 d1 4c e9 1d ed 18 40 ea 24 b2 5d 17 e1 d8 bf
       6.231559415162754 -0.3887384810446536
0007a0 eb a7 05 f1 60 fe c1 3f 4a f5 08 63 bd b4 cf 3f
       0.1405755211702052 0.24770324073498734
0007b0 10 86 20 b2 19 8c 01 40 20 2b 1c 9e 2e 75 ea 3f
       2.1934083858657303 0.8268044555746634
0007c0 13 1c 9d 7e 61 5d d6 bf c0 35 5d f2 a8 aa d0 3f
       -0.3494495140516289 0.260416256602948
0007d0 8c e1 11 6f e5 c4 b0 3f 4d 7a 75 c8 89 a5 d6 bf
       0.06550439798036772 -0.35385365081848336
0007e0 4e b2 93 f4 8b 72 c8 bf 84 9a 91 6c 8a 4e ae 3f
       -0.19099568788751004 0.0591929681329946
0007f0 1b 0c cb 66 e9 26 e9 bf 20 1c 8f ce 9e 27 ba 3f
       -0.78599996640003 0.10216705840058227

fc2.bias f8 [64]
000000 a9 cf d0 3c 37 fe bf bf 04 37 3b 40 66 50 c0 3f
       -0.12497277483708892 0.12745359550756785
000010 26 83 8c bb 02 9a e8 bf 21 fe 66 68 88 37 e8 bf
       -0.7688001311363208 -0.7567789115054816
000020 b5 c9 de 21 f0 5a d9 3f fd d1 78 e8 1c 6e e4 bf
       0.39617541606562706 -0.6384415188281874
000030 af e4 5a e4 bc c0 f6 3f ad 5f 6d 8e 1a cb e5 bf
       1.422055141460344 -0.6810429364950231
000040 b0 06 87 86 14 76 b8 3f 6e 29 e4 e5 32 e4 d1 bf
       0.0955517605243823 -0.2795531506568726
000050 1f fe 6a d0 a8 61 db bf 2c 5b 9d f5 5a 3c e5 bf
       -0.4278356585818716 -0.6636175915872164
000060 21 7b 0b 1f f1 9c e7 bf a5 87 90 3f f3 e2 e4 bf
       -0.7379079443306616 -0.6527038804526809
000070 cf 53 47 33 26 52 a0 bf c1 50 29 6a 53 54 ef bf
       -0.03187674880943058 -0.9790436814751261
000080 76 b5 96 1b 5f 3a b4 bf 1d f4 5a 92 d8 49 d4 bf
       -0.07901567863037492 -0.317007201123319
000090 62 9f 2b b5 66 7e ea bf 4a 57 53 f2 0f f3 63 bf
       -0.8279298342213048 -0.0024352370697710334
0000a0 ea 5e 01 cc 61 60 f1 3f 4f e4 9a 51 87 50 c9 3f
       1.0860307663878594 0.19777003750440023
0000b0 31 71 4f fe a4 5b ef bf 4c f8 ba e9 09 c9 e1 bf
       -0.979937073421331 -0.5557908597036287
0000c0 c9 50 34 8b 31 2f e0 bf 71 7d aa dd fa e7 ec 3f
       -0.5057609289965735 0.9033178643621068
0000d0 87 ec d5 88 e6 5a ea bf 17 83 49 a2 6e cf ea bf
       -0.8235962555476285 -0.8378213090582872
0000e0 43 ea 2d db a5 ba dd bf 8f 76 7b 0a 30 d1 f4 3f
       -0.4645170822547337 1.3010712060417153
0000f0 c0 bb 5e 8a b4 53 f2 bf 6d 9c 42 28 f2 a8 eb 3f
       -1.1454358487205667 0.8643732820827502
000100 9a e5 45 5c 60 6e e3 bf 92 76 2a 5d 9c c6 d1 bf
       -0.607223682614108 -0.2777472410033194
000110 f4 96 db f0 c2 68 a8 bf 45 48 f0 26 78 bc e9 bf
       -0.04767426672132827 -0.8042565117377839
000120 14 ac c7 11 88 89 d2 bf 5b 6b b1 df 18 62 aa bf
       -0.28964425789189474 -0.051529671961097555
000130 38 d8 5b 79 41 b5 f2 bf 20 83 f3 a5 a9 ba c7 bf
       -1.1692518940522074 -0.1853839931782426
000140 2d 61 ab e8 00 6d e9 bf 37 a2 06 d0 e9 ab c1 3f
       -0.7945560974431253 0.13805887849345463
000150 c2 80 ca 01 40 72 f6 bf 47 fe ee 49 dc a8 e0 3f
       -1.4028930730783462 0.5206128543868055
000160 1e 17 07 91 a1 e0 e6 bf 04 78 36 9f 9e 3f e7 bf
       -0.7149207909176061 -0.7265160665153876
000170 d2 0e 01 67 5f 05 b1 bf c9 28 73 49 ae 7d d3 bf
       -0.0664882303690846 -0.3045459477695088
000180 38 59 28 a1 99 c8 da bf 28 fb e2 72 c3 db f1 3f
       -0.4184936593823241 1.1161531913528027
000190 46 49 02 3d 56 86 c5 bf 9b a2 99 e7 c2 a8 e9 3f
       -0.1681621358771485 0.8018507502975639
0001a0 53 33 c3 cf bb 9a d5 bf 33 9f 3a 2e 90 08 e1 3f
       -0.33756919183070017 0.5322953131589884
0001b0 c2 92 4c 2e 31 64 e2 bf 30 7a 66 a5 04 1d f1 bf
       -0.5747304825095727 -1.0695845089864058
0001c0 ad 7e 77 4d bf 5b f0 bf cc 9f ef 2c 61 f2 ea bf
       -1.0223992372556652 -0.8420873525292278
0001d0 76 9b c4 a8 0b 42 de bf 86 3f 48 d8 60 7d f1 3f
       -0.47278110009431573 1.0931099365734283
0001e0 ae 5b 58 52 b4 4b ae 3f db 0b 9c 20 07 ce e4 bf
       0.05917132859411055 -0.6501498829751385
0001f0 ae 5f cf 5e cf 6b d2 3f 60 cd 6c 4f 51 1a 5b 3f
       0.28783020266336734 0.0016542238278816832

fc3.weight f8 [4, 64]
000000 1e aa 86 55 c6 ca 0c c0 42 77 c6 cf 44 d8 f1 bf
       -3.599011104747901 -1.1152999988766656
000010 61 d5 62 9c d6 f0 fa bf b2 d7 e4 8e e2 4e e6 3f
       -1.6837984188872144 0.6971295157334139
000020 8b 74 84 07 6d 71 fe bf e3 03 b8 16 ef e3 f5 bf
       -1.9026918691299979 -1.368147934670781
000030 56 c0 c0 52 4c 66 13 40 2e d4 21 e1 8d 46 f3 bf
       4.849900525107008 -1.2047251505112047
000040 be 6f 78 01 7a a3 77 3f a8 c0 e4 ea df bc 10 40
       0.005771137795388568 4.184447927677105
000050 aa 8e 92 4d b4 1a f7 bf 7f 6d 2c a9 00 4a dd bf
       -1.4440196066069952 -0.4576417591176422
000060 8e b6 d6 c6 d8 7f ef bf 11 71 30 de 5f 15 f5 bf
       -0.9843562968796549 -1.3177183799044239
000070 b0 f2 bc 44 9d 3b eb bf 54 b8 41 8a 27 74 fb bf
       -0.8510271399059857 -1.7158580208447534
000080 0d ab 3e 5b 86 be ae 3f 45 aa fe 7f 2c 63 f5 bf
       0.06004733909442992 -1.336712360362655
000090 61 ad 16 e8 c0 00 0a c0 d5 06 4d d9 3e ad 14 40
       -3.2503679401321937 5.169185061765991
0000a0 55 72 7f a5 7d 2d a5 3f 10 1d 08 fa 62 bb 11 40
       0.04136269231068882 4.432994753594599
0000b0 52 95 c7 fe 04 fe fe bf c6 c9 90 51 f7 4f 0b c0
       -1.9370164825753204 -3.4140459415732236
0000c0 6a e9 7c 38 03 c3 fc bf 35 ae a9 00 e3 23 0b 40
       -1.7976104933319115 3.392522816828001
0000d0 af c9 0d 25 5e 44 01 c0 84 5f cb a2 0f 24 f8 bf
       -2.158382691844245 -1.5088039740712427
0000e0 04 92 26 90 77 2b da 3f ba c1 a0 a7 3e 36 ad 3f
       0.40890301778043203 0.057054479563137986
0000f0 d5 89 4b a7 86 33 0e c0 69 6a e4 bc 53 5d 89 bf
       -3.7751591749122135 -0.012385038568529088
000100 6e 21 27 3f 30 71 e8 bf 19 56 e1 1b db 44 03 c0
       -0.7638169511274506 -2.408621042074412
000110 23 cf 31 e2 3e 8f 1f c0 7d d8 2d 72 2c 0c 18 c0
       -7.889888319292171 -6.011888298080632
000120 94 1c c3 c8 e3 76 f1 3f 3f f6 57 4c 9e 28 10 c0
       1.0915258257171319 -4.039666359776276
000130 ec 49 91 8c 54 b4 07 c0 35 34 16 3f f2 17 04 40
       -2.963051889594899 2.5116925171519378
000140 24 be 1e 59 20 67 fe bf f8 d0 89 f1 f7 77 14 40
       -1.9001773339513273 5.117156766926421
000150 23 e6 04 cb 45 8d 12 c0 11 cd 73 dc 83 9c 14 40
       -4.637961551832208 5.152846760337767
000160 70 85 a8 4e 31 c8 0c c0 5b 31 7b f3 57 e5 ef bf
       -3.597750296132908 -0.9967460399143805
000170 54 0e 9c c0 75 62 16 40 46 ba 98 ce 9c a0 ea bf
       5.59615231468668 -0.8321060214128202
000180 f6 e7 3f b0 a6 52 10 40 c3 0f c6 c4 64 6a 09 40
       4.080713991070288 3.1769500134414286
000190 ed 7b 4d 02 25 51 c4 3f 79 48 8e df dd 1c d3 3f
       0.15872633564410368 0.2986368830835385
0001a0 4f ec 29 ff 92 00 13 c0 21 1a 1b bb e4 fc f1 3f
       -4.75056074803713 1.1242415722678134
0001b0 fe 1a d2 d0 7e 5a de 3f ce 13 d0 86 57 8d fd bf
       0.47427339928292145 -1.8470073000073515
0001c0 7d 32 c3 55 39 58 f9 bf 94 10 e6 90 32 9e fd 3f
       -1.584039053926204 1.8511224422555062
0001d0 2d 34 8b e0 be bf 1c c0 bd e2 a8 a3 f0 cf fd 3f
       -7.187251575943304 1.8632666008908665
0001e0 50 3a e9 69 a1 c2 17 40 c2 27 ca 34 51 37 f5 bf
       5.940068869457335 -1.3260051786514713
0001f0 ee 75 53 f3 92 bf 0f 40 db 63 f6 45 09 6a b8 bf
       3.9685420045705007 -0.09536798437183285
000200 cc ce 97 e7 f5 b0 09 c0 ac bd 39 66 1e 29 00 40
       -3.2114065259173454 2.020077513348687
000210 d1 63 6a 4b 7b ff f5 bf 82 10 2a c7 a6 0e f3 bf
       -1.3748734422608673 -1.1910770206314116
000220 26 a5 88 2f 27 e8 b5 bf ec c3 25 bb 73 6c f5 bf
       -0.0855736247109645 -1.3389775572252303
000230 bd 60 25 4e 45 64 15 40 15 94 bb 98 19 23 f2 bf
       5.34792062857758 -1.1335693327066612
000240 d7 6d 40 9f a7 64 a1 3f a6 db 7d 86 45 2d 14 40
       0.03397105998029886 5.044210530692828
000250 a8 0c 88 21 54 29 d5 3f 04 e2 15 90 d4 0a ec bf
       0.33064749979548447 -0.8763220609826594
000260 3c 94 c0 8f 81 80 f2 bf f0 cf 82 18 be 3c f1 bf
       -1.156373559505723 -1.0773297269306532
000270 74 b4 ef c9 e2 05 f3 3f 4e f4 78 e3 62 83 fa bf
       1.1889369857920231 -1.6570767293590225
000280 98 08 92 34 e4 a8 a3 3f 64 dc ab 3b 55 80 d7 3f
       0.03839791433075951 0.36720782115248185
000290 f8 93 df a4 63 e4 0e c0 28 90 03 5c 10 4d 13 40
       -3.8615181809168426 4.82525771877048
0002a0 fd 71 54 d9 bb 5a f6 3f 9a 95 3c df 00 5d 12 40
       1.397151802964003 4.590823638985421
0002b0 ef 87 f0 91 12 64 04 c0 92 84 4e d9 9b 17 09 c0
       -2.5488635446099503 -3.1365277268492457
0002c0 78 89 f7 de 30 6b da bf fe 43 2c f8 8b 66 0b 40
       -0.41279241346469275 3.4250716579922473
0002d0 a2 c0 29 bd 6b 9d fe bf 86 fe ec 48 c9 90 f7 bf
       -1.9134328259643003 -1.4728482102072191
0002e0 78 99 97 7e 11 a4 f0 bf c4 88 61 db 80 68 c9 3f
       -1.0400557465560194 0.19850168907129817
0002f0 96 34 92 c6 e1 85 06 c0 16 ca 81 24 59 88 f4 3f
       -2.8153720391624786 1.2832881380132952
000300 25 5c ec ec 7d 1e ce bf 60 71 d4 a2 01 95 00 c0
       -0.23530553883094388 -2.072757026775591
000310 77 0b b5 72 26 ab 1e c0 f6 8d ae 3d b4 34 17 c0
       -7.667138855266663 -5.8014688146390565
000320 98 88 47 ee 98 7d d4 bf 17 c1 25 cf 68 92 d3 3f
       -0.3201658560702838 0.3058111212658487
000330 90 9d f7 c5 10 81 0b c0 a6 90 c6 ea 89 0d e5 bf
       -3.4380202737990615 -0.6579026780568895
000340 3c 0b af 27 88 53 f8 bf 47 7d 28 69 92 61 14 40
       -1.5203935194155767 5.095285075279498
000350 d3 4e e6 5a 6c 69 11 c0 ad c6 18 37 87 6c 13 40
       -4.3529524043148795 4.8559845551368825
000360 21 43 5b ee 31 60 0c c0 1c 8e 8a 81 09 f2 f4 bf
       -3.54697023597727 -1.3090910968975384
000370 43 f9 b8 56 67 94 17 40 2c 56 81 97 45 5a 05 c0
       5.894925456085107 -2.669078048357525
000380 35 ff 4f e8 b5 7a 0e 40 56 0b 03 53 4c ea 06 40
       3.809917273465454 2.8644033894828835
000390 59 45 f2 b3 86 a2 ab 3f f4 bf c6 88 43 4c d3 3f
       0.0539743513737771 0.3015297733027176
0003a0 28 30 50 78 ca 12 11 c0 d4 ae 33 af ee ce f1 3f
       -4.268350486654562 1.1130205959151924
0003b0 0a 4a b4 d5 8a f5 f1 bf 30 dd 4e f1 6d 0f fa bf
       -1.122446856291051 -1.6287669588180727
0003c0 11 9c 27 f7 5d 51 fd bf c9 73 26 1d d0 38 01 c0
       -1.8323650030595255 -2.152740695701571
0003d0 e4 56 f6 ba 69 e3 20 c0 91 29 fc c6 75 25 0c 40
       -8.444166033335428 3.518291048593888
0003e0 92 b4 10 d0 b3 b4 13 40 17 c4 c2 77 e9 45 f8 bf
       4.926467181224455 -1.5170683553844861
0003f0 0f 81 3e d9 57 6f 0f 40 84 93 76 e2 a3 35 b8 3f
       3.929366776676154 0.09456848410498081
000400 b0 fd d5 97 83 7d 07 c0 ac 31 3c d6 69 69 e8 bf
       -2.9362861501865254 -0.7628678497581425
000410 b9 9c 19 c1 14 1a f1 bf dc bf a5 78 8c 39 c6 bf
       -1.0688674490900623 -0.17363124743451308
000420 ee ee e7 f9 41 47 e9 bf 89 81 47 1a a0 32 f4 bf
       -0.7899484520889624 -1.262359717038722
000430 ee a9 0d 31 1c 16 13 40 b5 54 8e b1 33 fb f0 bf
       4.771591917475673 -1.0613285957127065
000440 76 bc 30 c5 9b 74 a2 bf c4 e2 f3 10 fe 78 11 40
       -0.03604590208157614 4.36815668572007
000450 82 ed 1f 4d 1f 4c f3 bf c2 9a 1b 8d 5d 7b f1 bf
       -1.2060845387157717 -1.0926185142540565
000460 28 c8 ff 4f 1b 15 f1 bf 1d f6 ec 94 9b 6c f1 bf
       -1.0676530003515925 -1.089015561810249
000470 e3 0a 9d 20 1c 3c f4 bf fa 87 27 fc b3 bf f8 bf
       -1.2646752618754185 -1.546802506426046
000480 ec 6a 05 ae d8 6c 9c 3f 4e c6 3d f7 44 87 ef bf
       0.027758966084870204 -0.9852623776370792
000490 fb 0f 24 f5 12 b5 11 c0 46 df 1f c7 e5 8a 11 40
       -4.426830129934383 4.38564215786011
0004a0 bc 92 5c 89 03 e8 f0 bf 32 3c a4 7a e6 1c 12 40
       -1.0566439977348372 4.528222957872503
0004b0 b1 a3 63 63 ec 6c 01 c0 78 77 58 fe 06 f9 07 c0
       -2.1781852497847116 -2.9965953703639876
0004c0 18 f5 91 f8 fb c6 f5 bf ca da 70 a2 4a a5 0b 40
       -1.3610801419993717 3.4557087603273873
0004d0 68 2e d9 1c de 82 e6 bf b2 36 2f 37 41 75 f2 bf
       -0.703475052208387 -1.153626647533582
0004e0 2e cd b1 5d 3b 3f f4 bf f0 03 f8 f0 57 4e 98 bf
       -1.2654374751990178 -0.023736356813973403
0004f0 00 1e f3 91 8d c8 05 c0 c9 b6 fe f5 b7 2f eb bf
       -2.7229262735670545 -0.849575024088801
000500 50 59 d7 1f 56 93 f0 bf d2 16 db b8 15 8d f9 bf
       -1.0359708064839488 -1.596944543927226
000510 fd 19 b6 a1 19 44 1d c0 6c ba d4 52 51 88 16 c0
       -7.316504027118296 -5.633122724756145
000520 09 b3 b9 5b 71 2f e3 bf c8 32 39 7b a0 9a e4 3f
       -0.5995413581382262 0.6438753515918387
000530 fc 93 54 1f b5 0d 08 c0 41 aa a0 ae 26 78 c8 3f
       -3.006693119782083 0.19116672064531495
000540 40 d1 b6 88 bf da f4 bf c7 b2 f5 86 62 9f 15 40
       -1.3034053173442572 5.405649288889157
000550 98 7f b4 97 29 87 12 c0 e3 a5 ba d7 3b 93 13 40
       -4.631994600669621 4.893782969252672
000560 9b 9c 97 4c 2f 2e 0c c0 e3 55 fb f1 89 08 eb bf
       -3.52255115354235 -0.8447923399168612
000570 f1 9f 48 5e e0 24 18 40 d5 d2 bd 98 2c d9 03 c0
       6.03601214712397 -2.4810420926026873
000580 51 92 f5 74 dc bb ff 3f d9 61 5d cd d0 4d 06 40
       1.9833645409318204 2.7879959148524276
000590 26 9f ab 09 90 64 d3 3f 3c 11 be 64 2b 31 17 40
       0.3030128569066498 5.7980170956619155
0005a0 55 e4 81 78 ce 2e 13 c0 09 ae 0d ba 4c 77 e4 3f
       -4.795709498336767 0.639562953363055
0005b0 fb 88 02 66 e4 5b ee bf 48 5c 44 ac a0 96 f7 bf
       -0.9487173073178207 -1.4742743233853322
0005c0 f3 ec b5 a3 3f 85 fc bf 7c 97 2b 02 92 0c f9 3f
       -1.782531394476618 1.5655689320351192
0005d0 3c 90 d4 af 8b 6a 1b c0 ba 85 f3 9d 42 5f 04 40
       -6.85404848799595 2.546513780588353
0005e0 99 57 d6 3e 58 9f fd 3f 20 1b fc b9 67 7a f3 bf
       1.8514025168019315 -1.2173840775519196
0005f0 0b e6 2e 0a ce 37 0f 40 7b 56 d2 84 27 e4 a8 bf
       3.9022484584390944 -0.048615679706171165
000600 73 00 62 e2 07 5b 0b c0 06 7e 92 4b 5a ac fb bf
       -3.419448631873871 -1.7295782997169922
000610 51 6d db 88 ed 65 cf bf a2 ad 64 8a da 14 ed bf
       -0.24529809172131903 -0.9087956145280496
000620 7c 03 bd fb 67 ea cf bf fd 42 b7 36 aa 66 d7 3f
       -0.2493410090628706 0.3656411680540684
000630 a8 36 66 2e 57 c7 15 40 3d dd ce da 65 0a f0 bf
       5.444668507565133 -1.0025385424795126
000640 62 f4 4c e2 94 d9 93 3f b1 c2 1e 28 01 b8 12 40
       0.019384695350926136 4.679691912534211
000650 15 6f 65 cf 53 a2 f4 bf d7 34 86 f6 91 6d c8 3f
       -1.2896307088294112 0.19084381615940657
000660 02 db 7b fc 33 1f d9 3f ca 43 f5 a0 c1 a9 f3 bf
       0.39252948433515666 -1.2289444243835868
000670 f8 71 43 8f 6b 7a f2 bf 0a 94 10 d8 54 12 f7 bf
       -1.1548877330998248 -1.4419754447965283
000680 8e ef cf 89 2e 39 b7 3f 03 81 b2 78 5f b2 f2 bf
       0.09071627487713682 -1.1685480799424688
000690 69 07 fc 43 e1 de 0d c0 4f 0a 63 56 19 2a 15 40
       -3.7338280974662905 5.291112279696406
0006a0 0a f3 4a bc 55 bc f6 3f ba 7c 7e 6d 73 b3 12 40
       1.4209802012621275 4.675245009274642
0006b0 48 26 13 d8 39 2c 02 c0 25 c7 46 06 6f db 0a c0
       -2.271594703754804 -3.357145356211634
0006c0 b9 6c 54 14 3e ad f6 bf 2d 60 ef 84 44 d5 0a 40
       -1.4172955316669642 3.3541345964004194
0006d0 6a 55 34 95 74 71 c5 bf 65 c0 08 14 c5 3f f1 bf
       -0.16752488408443905 -1.0780688078484897
0006e0 27 70 bd 6f f0 fc f1 bf 7e 73 0d 01 3b 2e 10 40
       -1.1242527355998477 4.0451469578227925
0006f0 b2 7d b1 04 63 98 07 c0 5b 27 fe 37 cb f4 f1 3f
       -2.9494076124826387 1.1222641169756205
000700 43 30 9b b1 64 b7 f2 bf e7 97 ac 68 1a 40 01 c0
       -1.1697737634413137 -2.1563003709479633
000710 10 91 55 9b d0 65 1b c0 f4 45 74 8d 3a ce 15 c0
       -6.84942858419187 -5.451395235273129
000720 08 19 fb e6 da e3 ed bf 31 16 cc 00 44 71 f5 bf
       -0.9340643416733494 -1.3401527434483678
000730 b4 f5 fb 92 61 f9 07 c0 87 7a a9 66 15 08 eb bf
       -2.9967681391851446 -0.8447367673032468
000740 4d f0 ac 7e 8a ea f5 bf ec fb d2 25 01 f5 13 40
       -1.3697609852088306 4.989262190821119
000750 98 db c4 3a 2c 0b 11 c0 90 65 7e 73 aa 49 15 40
       -4.260910909905668 5.3219392820259515
000760 96 04 17 4f 67 c1 0b c0 b5 f4 51 30 c2 da f2 bf
       -3.4694353274249563 -1.1784078490739323
000770 be e3 4b 2c fa 25 17 40 0d e7 ee 39 1f 46 f3 bf
       5.787087146884856 -1.2046196234718451
000780 2e da a7 ab 9a fc 07 40 f2 38 9c f3 70 54 07 40
       2.998341885623879 2.9162310630846315
000790 e2 bb 73 1e 06 d0 fb bf 52 42 82 1e 79 eb c3 3f
       -1.7382870854887575 0.15562356939018912
0007a0 ca 4f 92 be e4 b5 0c c0 8f b1 62 e4 43 80 e1 bf
       -3.588815201606825 -0.546907373490784
0007b0 0e 91 c8 14 a9 9a f2 bf 41 0e 54 31 5b ba 00 c0
       -1.162758904633907 -2.0909942487503774
0007c0 7e 1a 26 75 96 48 fc bf ae f5 42 1c b5 bf 02 c0
       -1.7677216125609045 -2.343607159417579
0007d0 2b 8c 5b 5e 16 40 20 c0 5d 20 92 20 da 49 06 40
       -8.125170658755527 2.7860605759233708
0007e0 8c 08 7e d8 8f 0a 25 c0 14 f1 16 ee 1f f4 ce 3f
       -10.520628705391822 0.24182509541959318
0007f0 66 1d 31 a5 ae 23 11 40 ff da b1 75 79 c7 60 bf
       4.2848459063746756 -0.0020482418308874757

fc3.bias f8 [4]
000000 dc 78 79 f3 7c 1d e7 3f 90 f2 1b bc d4 46 f2 3f
       0.7223496203767144 1.142292723466344
000010 43 57 de 34 14 40 c8 bf bf 9f 7c fb 6b b8 e3 3f
       -0.18945553380461364 0.6162624275066192
