checkpoints/2022.02.22-22:56:22/best_mean_meta_component0_model_e7730.pth (torch, 103639 bytes, 6 tensors)

fc1.weight f8 [64, 10]
0	0xc005b01a87e3dfe6	-2.7109881035248575
1	0xbfd41c6108c89586	-0.31423211915747407
2	0xbff3b82ae29d3965	-1.2324627735248097
3	0x3fe0f5f1c2729a9b	0.5300225065046392
4	0x3fced27035c3d0b1	0.2407970678829137
5	0xbfd6aa8ad2e14ac3	-0.35415907472376434
6	0x3f9340ae0cad47e9	0.018801421664939175
7	0x3fda841e47599d6c	0.41431385963229306
8	0xbfd25ade9a1c42e5	-0.2867962365135511
9	0xbfdd51732950e7c0	-0.4580963042714039
10	0xbff81733f858064a	-1.5056647969180568
11	0x3fef0dd765540fe9	0.9704396227903064
12	0x3fca12051bdcde15	0.20367492542730817
13	0xbfc5151f549fcf6e	-0.1647071040348424
14	0x3ff2ee5fad9cc329	1.1831967145664726
15	0xbfa6c546f39812ff	-0.044473855243301934
16	0xbfd183a169ea55c7	-0.2736590895013617
17	0x3fd71e19ad290a9e	0.36121217642009096
18	0x3f767fd5ca615ac1	0.005493006820038005
19	0xbfb0ed15f65121df	-0.06611764205548053
20	0xc011d322ab7a68ae	-4.456186942430731
21	0x3ff0f45cae88e133	1.0596587007294829
22	0xbfe1f5c03cc3bd3c	-0.561248892479774
23	0x3fe89b11a0927d5e	0.7689293037582663
24	0x3ff232af4be862e0	1.1373742070338082
25	0xbfc95dc0ecbf5763	-0.19817363319333045
26	0xbfc5e52c9c51ebc1	-0.17105634339153933
27	0xbfbe0595bd8bbc63	-0.11727271916946473
28	0x3fc14f9c1d8e7a19	0.1352419990843863
29	0xbfc699d4f63a3305	-0.17656957648105034
30	0x400a93d39ada12c1	3.3221809480477025
31	0xbfe1a4890bca80e0	-0.5513348799031768
32	0xbfec3f3a3b428221	-0.8827181966226513
33	0xbfe62afd40d2f317	-0.6927477136701751
34	0x3ff00ba5a034fad6	1.0028434999546127
35	0xbfa756c099726ac3	-0.04558374283916102
36	0x3fd3a93c4f4cf996	0.3072043203755127
37	0x3fba874ec09d24e0	0.10362713053213524
38	0xbfb7098b57d32d24	-0.08998938459551603
39	0x3fc19c02506fe31a	0.13757351806250356
40	0x3fcb15786eb46a5a	0.21159272580628646
41	0xbffdc252ebd40dd7	-1.8599423610729582
42	0x3fa39c16b0e9523b	0.038300236793166374
43	0x3fd90abc5ae797b2	0.39128025891693163
44	0xbfd402a2202e2159	-0.31266072409245776
45	0xbfdbd6e18d8f3675	-0.4349902994552857
46	0xbfd1011dfa1e6d2e	-0.2656931822363785
47	0x3fd17c6e229dd0fa	0.2732196176578011
48	0xbfb84315848764a8	-0.09477362142151213
49	0xbfc66c6474567253	-0.17518287354040982
50	0x4007012c2f672f70	2.8755725577702194
51	0xbfd61f548bc656c5	-0.3456622471797853
52	0xbfeafada536a5d3b	-0.8431216839989369
53	0x3fe982546ca6a1ec	0.7971593973243762
54	0x3ff027f290026f5a	1.0097528100368067
55	0x3fc45bdc0fa7ce90	0.15905333294323443
56	0x3fb369b08b484b7a	0.0758314456982542
57	0x3fcb6bd98959cf11	0.21422881323416523
58	0xbfcdb1f6fec148b8	-0.23199355544290312
59	0xbfbb987ef33c30a1	-0.10779565275533055
60	0x3fe59240da7ce174	0.674103190168394
61	0xbfdf1e62ba919a3e	-0.48622959346394967
62	0xbff728f5d572e833	-1.4475000703664704
63	0x3ff016049d88ffd2	1.0053754953114447
64	0xc00724b084127c39	-2.8929148023740052
65	0x3fd3eec182d306f0	0.3114475038129134
66	0x3fd41d72fbe9d722	0.3142974338619401
67	0xbfc9585bc83c0000	-0.19800898816174595
68	0xbfa69675dd752670	-0.0441166718324667
69	0x3fdc0051767e04d5	0.43751942225942503
70	0x3ff653526e912c77	1.3953422850634334
71	0xbfde4dc3a161397c	-0.47349634895081016
72	0x3fa482a4910704d4	0.040059225753347555
73	0xbfd8a57819d2cd52	-0.3850994350606999
74	0x3fdee3eec0619dd0	0.4826619032596371
75	0xbf80a1c0c8663527	-0.008121019473743175
76	0xbfcd8726a7a71836	-0.23068698106925617
77	0x3f809946997b63bd	0.00810485034837593
78	0x3faedd7884ccc8fa	0.06028343793004072
79	0xbfd1786194c156ea	-0.2729724838912789
80	0xbff416a5aef50b9d	-1.2555291017785983
81	0x3ffd7c6b9b7f70df	1.842876059926361
82	0xbff0dc480429ee14	-1.0537796175621041
83	0xbfe27e276316709d	-0.5778996405893114
84	0xbff609627efeb4bd	-1.3772911988010457
85	0xbfb404013503e00a	-0.07818610710444332
86	0x3fd2b96ca8f020fe	0.29256741044856927
87	0xbfc10bd935c64e87	-0.13317408681597362
88	0xbfd188a56ed3d277	-0.2739652235316394
89	0x3fac4b209e288299	0.05526067667620289
90	0xc00693e913edf326	-2.8222219044677272
91	0xbfe18dd27948db8f	-0.5485622757758949
92	0x3fe51a3d16a2ddb3	0.6594529573548499
93	0xbff44799f67f73dc	-1.2674808148215027
94	0xbfdcb957c43fbe31	-0.4488124290937519
95	0xbf9328de8134b1c9	-0.018710590969179628
96	0xbfbdd4f8ac5e3358	-0.11653093536569992
97	0x3fb301e599b3db9e	0.07424769403938433
98	0xbfc0ae15abfac735	-0.1303126420730735
99	0xbfd3c18e02958ee6	-0.3086886430012171
100	0xc0008f7c601e4876	-2.070061446117559
101	0xc012dc5f7b3310df	-4.715207982055488
102	0x3fd0d980309ed7b6	0.26327519176572467
103	0x3feae01232e09709	0.8398524278352123
104	0x3fdfde704883fc31	0.4979515751037438
105	0xbfbd8ef5ec029b34	-0.11546265613524725
106	0xbfd13d61afc55bd0	-0.26937143483285997
107	0x3fc77baed3ff9467	0.18346200324518522
108	0xbfbef9eb1b1be4a6	-0.12100095187988077
109	0xbfd8d858da7907c0	-0.3882047780535878
110	0xbff324d981e9de70	-1.196496493792349
111	0xc00117597aefffa6	-2.1364011387340325
112	0x3fb24727dfc78b4f	0.07139825070730164
113	0xbfde66ef2d4d4dc2	-0.4750326101686505
114	0xbfd6917f13d3ec37	-0.35263039528189516
115	0xbfd9d1dac7cd1963	-0.4034335089858329
116	0xbfca7c3c9fa36a56	-0.20691640658226856
117	0x3f30dd78ac6230c2	0.0002573413479545311
118	0xbfd3ddc0533eb535	-0.310409623426341
119	0xbfd9461f338275fc	-0.39490489988551736
120	0xbfb7729c83ef020f	-0.09159258099590083
121	0x40029da03305849b	2.326965712171455
122	0x3fff36980f96ad81	1.950828610318098
123	0x3ff82f985ccf5aa1	1.5116199136151993
124	0xbfd03f5329d9b56c	-0.25386504256206055
125	0x3fc7e6d4f5a217e1	0.1867319297199961
126	0xbfc8b86bde3bcf07	-0.1931280932545791
127	0xbfda85fba0c58a93	-0.4144276685748675
128	0x3fa8470c1d0ef8d6	0.04741704802244022
129	0x3fe43bcd2d6821e8	0.6322999846316266
130	0xc00192221273d382	-2.1963540498349525
131	0x3fd0bba9b039042a	0.26145403107881526
132	0xbffba80fd3ca4b8f	-1.728530719094781
133	0xbfeb3567ff40c32c	-0.8502693162355164
134	0xc0034bc65aab3b12	-2.411999424315021
135	0x3fe6ea4f34bd2f4b	0.7161022214945459
136	0xbfa809ae98666d97	-0.04694886789658453
137	0xbfd6f1c9af8c4a05	-0.3585075582824689
138	0x3fc725ca64f4c305	0.1808407776784621
139	0x3fe706f96ff182ee	0.7196013628382312
140	0x3fa3d5e01aa3a9dd	0.03874111485659502
141	0x40062ea94f8a47f9	2.7727838720393234
142	0xbfb98733e5804d0c	-0.09971927979522749
143	0x3fc31f486575800a	0.1493921752362442
144	0xbfdf25d013cc571b	-0.48668291028421756
145	0xbfe039ceff5dbdf0	-0.5070567119236653
146	0xbf964fd355a6affa	-0.021788885214547783
147	0xbf9d8fda707ba13b	-0.02886906920949282
148	0x3fbab5d5dce3295d	0.10433708803899351
149	0xbfbd31cae3691f9b	-0.11404102375047247
150	0x3fe18bb643eb5490	0.5483046843097714
151	0x4005ba6f3667e95e	2.7160324335538197
152	0xbffe32eb2d561c77	-1.8874313136055016
153	0x3fd1d7da1d2739f3	0.2787995609950535
154	0x3fd748e42d12f775	0.3638239326645512
155	0xbf6e91b14f90f7a6	-0.003731581030051739
156	0xbfca6bf4e2215ebf	-0.20641957322617618
157	0xbfc39a065ea7b531	-0.15313796636420698
158	0xbfd3213fe8078e31	-0.2989043966210572
159	0x3fc7cfec6bef91a3	0.18603282232574
160	0xbffcd835c91eec19	-1.8027856689720976
161	0xc006a971c95cdb91	-2.832736561914722
162	0xbfcaf88e28f66616	-0.21071030616876446
163	0x3faf3f97f38249b9	0.06103205535432061
164	0x3ff66df0da5eb13a	1.4018410234521768
165	0xbfdfea42d93ae2d5	-0.49867316449994564
166	0xbfbd10feb87c7d27	-0.11354057315883335
167	0x3fde181bafa75140	0.4702214446417834
168	0x3fabbca5320c9762	0.05417362438156094
169	0x3fa3f1386c344373	0.038949740608706394
170	0xbff94ff944ae58a2	-1.582024830136597
171	0x3fce1c9273af7c2a	0.23524695061402784
172	0xbffdba5351101c87	-1.8579896132012281
173	0x3fe96c090fdcc65c	0.7944379148304495
174	0x3ff63e28b986afd0	1.390175556861312
175	0x3fae8d45a8c46959	0.059671570636242684
176	0xbfa78569afeb6f52	-0.04593973419625165
177	0xbfbe6331c9cf669d	-0.11870108773237083
178	0xbfbf4676f1b831a5	-0.12216895486216701
179	0x3fd46546c24cd5f9	0.3186814210378937
180	0xbff83bd3efd8ce6b	-1.5146064156550902
181	0xc00e344ab2d5003e	-3.775533101201318
182	0x3fc00be6f8bb4f93	0.12536322732068736
183	0x3fcfdc65b3c48725	0.24891349103659724
184	0xbffb5e4a503c6700	-1.7105200895516077
185	0xbfcf3dd328d66bf6	-0.24407424444220255
186	0x3fd23f489bcf7858	0.2851125260912162
187	0x3fc6a9bc9e279ad1	0.17705495569608456
188	0xbfd0c7156f63b78f	-0.26215110662348534
189	0xbfce2227755fa879	-0.23541730147491416
190	0xbffb63ee51d09f1e	-1.711897201146662
191	0x3fe6151fc681531a	0.6900786282591043
192	0xbfe4f08458b8e2d0	-0.6543599827628785
193	0x3fc5732f45611b1b	0.16757765662824728
194	0xbff969e3c4c05058	-1.5883519826502575
195	0xbfdf116859389cad	-0.485437476282139
196	0x3fc81ca13533bffc	0.1883737096572985
197	0x3fb257e0561be7b0	0.07165338613768202
198	0x3faa4544d4086ec6	0.05130972946446159
199	0xbfd6e9f4eb1bdefa	-0.35802958450174993
200	0xbfc92f636e03849e	-0.1967586791206814
201	0x3feaeca3fb912897	0.841386786786887
202	0xbfd4f46afc470f0a	-0.3274180854461838
203	0xbfeb5b08c79cb193	-0.8548625849412467
204	0xbffdfd309e42a86c	-1.8743139440580547
205	0xbfac39504870d9aa	-0.05512476810729379
206	0x3fce0ae8f8241a93	0.23470794788609747
207	0x3fd432f080ec6540	0.3156090983407758
208	0xbfcd34ad25614890	-0.22817005467601748
209	0xbfde8707c28095c4	-0.47699159616817277
210	0x3ff452540a2f8b0e	1.2700996778373255
211	0x3fe018583a54fef4	0.5029717578217672
212	0xbfd8f87dc756d574	-0.3901667067214796
213	0xbff05b8895a6be6f	-1.0223470540767285
214	0x3f86effd04d6214a	0.011199928960892298
215	0x3fd9ccd867e7428d	0.40312776705562997
216	0xbfc2e2abd935a737	-0.1475424585908571
217	0xbfdbfe5746b10c72	-0.43739873794056117
218	0xbfc063e3a2b990b0	-0.12804837651777268
219	0x3fe2f5b5fe6b014f	0.5924940079785673
220	0xbfb45453330a56b0	-0.0794116973505321
221	0xbfb57b8ff770f08c	-0.08391666213077736
222	0xbf8fe94dae3027d3	-0.015581709745692429
223	0x3f9eb07e421255f5	0.029970143110935116
224	0xbf82b83f580d3bb0	-0.009140486597656622
225	0x3fcdd63e32d32f38	0.2331006763619088
226	0x3fd13765cd25af36	0.26900620492846217
227	0xbfc1c9a18aa3b714	-0.13896579045779645
228	0xbfce05d189afa4cc	-0.23455256674723157
229	0x3fc3f3432fb2aa1d	0.15586128071784425
230	0xbff4e3e16598954a	-1.3056348770708888
231	0xbfe467adb0f65236	-0.6376560646336376
232	0x3fd085b6e0bc21b7	0.25816127726332233
233	0x3fe623905a63f867	0.6918412938537245
234	0x3fd4a66fe4a3ca24	0.3226585133371904
235	0xbfd2798602bb6976	-0.2886672045402955
236	0x3fd3c8330f8411bd	0.3090942050478381
237	0x3fd9387eecca4cfb	0.3940732300190601
238	0xbfc0d8141afe73b2	-0.13159419363082986
239	0xbfd207c7f148d84f	-0.2817249161047401
240	0xbfebee4abca18456	-0.8728383716771855
241	0xbffd13626dfe0909	-1.8172325417113504
242	0xbfe1b73d60c2d7a1	-0.553618134485749
243	0xbfc28e242e352d79	-0.14496280914532259
244	0xbfc0192b0420718f	-0.12576806737423538
245	0xbfb6cafac52d306d	-0.08903472246055495
246	0xbfb4c8b590100479	-0.08118757979538484
247	0x3fe0703e3f54bb94	0.5137015568669647
248	0x3f8996d367e0e039	0.01249470864068779
249	0xbfb04f90e440734c	-0.06371408054878919
250	0xbfe2f96fdcae158e	-0.5929488477856226
251	0x3ff46dd4138b07aa	1.2768135798837457
252	0xbf6cf2c2ec64e809	-0.003533726415438036
253	0x3fc6d93f3e3b8d5c	0.1785048536176913
254	0x3fa209a4f78a2baa	0.03522983094907002
255	0xbfd2262433ebd46a	-0.28357796736174257

fc1.bias f8 [64]
0	0x3fc9ece942459613	0.2025424550621869
1	0xbfb14a07a7fea920	-0.06753585673746842
2	0x3f9c74b5ebd55196	0.027788965720291957
3	0xbfce8a12cf8e84b2	-0.23858866819958774
4	0x3fd60d1bc79e1c42	0.3445500802412803
5	0xbf81b3d8f38a9775	-0.008643813068669218
6	0x3fbbb0c4a9ff3b94	0.10816601896588757
7	0x3fb6ce01b970f738	0.08908091332793056
8	0x3fc19f060cc3c25c	0.1376655161216317
9	0xbfc8163d16bc769a	-0.18817866907277364
10	0xbfc456802d70a85c	-0.1588897916674935
11	0x3fcb5f2d3dc6ffea	0.2138420631072216
12	0xbfe2c2aa612f79d7	-0.5862628839639069
13	0xbfd3a02a3d8569a2	-0.30665069587635163
14	0x3fd2bcf2859d05e4	0.2927824311082914
15	0x3fa3fc21d173f466	0.03903299028204614
16	0x3fb54cef6b465940	0.0832051884557119
17	0xbfc0e0e43b8ac949	-0.13186314494448428
18	0xbfb77566def68201	-0.09163515990668004
19	0x3fe343d53c1ee36d	0.6020303892356488
20	0x3f9087c8f70b3338	0.016142978742936992
21	0xbfd697199a5ab32b	-0.35297241281186825
22	0x3fc8975d7d372a18	0.19211929906880765
23	0x3fb576decca5a08d	0.08384506698860346
24	0x3fd69ff6236d3bdd	0.3535132738078895
25	0x3fa4c374d830564a	0.04055371417068139
26	0x3fda30504bcdf58e	0.4091988315847964
27	0x3f75661aa9b3538f	0.005224327232288397
28	0xbfc1b1c403baa369	-0.13823747808535394
29	0x3fc9792138b8d5e4	0.1990090872729261
30	0xbfb1e1a2c9db7ad3	-0.06984918049009119
31	0xbfbdb462ca42ef1d	-0.11603372037910416
32	0xbfd0f66a93940c70	-0.26504005824990085
33	0xbfabbba48a2cd880	-0.05416597544392321
34	0x3fc0db43b5bf4f13	0.13169142126445674
35	0x3fd2049cdb051d39	0.28153153790158886
36	0xbfc8300acf423032	-0.18896613235517773
37	0x3fe5bd4c3127bbfd	0.679357620245241
38	0xbf9d36e7f435c4c8	-0.028529762535474373
39	0xbfbd4ea4916f01c2	-0.11448124457002165
40	0x3fb8c46d257f77d8	0.09674722829319593
41	0x3fe0e58bb09be4d0	0.5280207108873132
42	0x3fc44542dbec3209	0.1583636831131943
43	0xbfc323e9b30218ea	-0.14953347435602576
44	0x3fcd81324a492d75	0.23050526263464702
45	0x3fc438924f195dc6	0.15797642576465715
46	0x3f70b32ca3c24b7c	0.0040771239984164175
47	0x3fc8d63021f3fbad	0.1940364995752736
48	0x3fe0093e33449830	0.5011282922103018
49	0x3fa69141db8baa42	0.04407697491645425
50	0xbfc427490092a51d	-0.15744888809175786
51	0x3f23f782e1da8359	0.0001523349064216594
52	0xbfca1f2551e52251	-0.20407549380094506
53	0xbfc164283d2b1798	-0.13586905466780475
54	0x3fc91e5e5209626e	0.19623927121826362
55	0xbfe28bc4dd16cf51	-0.5795616453310491
56	0x3fc3884f932cc474	0.15259737669251516
57	0x3fce68728f10d070	0.23756248460415774
58	0x3fcf1211145215a6	0.24273885242670906
59	0x3faf32b54bcb7a1f	0.06093374777059445
60	0xbfbf2cf4143a537a	-0.12177968496173533
61	0x3fa26bbd9e28b8d1	0.03597824626591407
62	0xbf6eb3631cd5e1a1	-0.0037476478379938204
63	0x3fc90ca139ed0777	0.19569793060696458

fc2.weight f8 [64, 64]
0	0xbfc193fb63bd536c	-0.13732855196090143
1	0x3fdcb7c68aac46ac	0.44871676962166407
2	0x3fd5acd384e813b3	0.3386734769740613
3	0xbf818ff5db35cd51	-0.008575363876593885
4	0x3fb95378c078fc2a	0.09892992686307936
5	0x3fae2175c0b73a3f	0.05884902932631463
6	0xbff6f9cf89a3eba8	-1.4359889389586247
7	0xbfc220d6e87fc216	-0.14162718155377324
8	0x3fcb0a6b38ae97a2	0.2112554575698456
9	0x3faf4e125f229030	0.06114251529041359
10	0x3fd60f1ff1057310	0.34467314278826766
11	0x3fd8d399df068891	0.3879151037200553
12	0x3fc549df2ab82451	0.16631688676742098
13	0x3fc9aa7b8105ca6e	0.2005152111047041
14	0xbfc3f6469df2e79a	-0.15595324241968173
15	0xbfedc58a1bba4bdd	-0.9303637067372353
16	0x3fb9dab7975ecf17	0.10099360890927432
17	0x3fe289282057c207	0.5792427665419958
18	0x3f9776d615761e84	0.02291426187505731
19	0xbf9e4129553ebe89	-0.029545446231792147
20	0x3fd6789f68607fa0	0.35111222451268453
21	0xbfd69c48422db647	-0.3532887121462846
22	0x3fa98be8e0f312db	0.049895551166206885
23	0x3fd2342ed7bc5e83	0.2844349962992753
24	0x3fd47b4984dbaf7f	0.32002485250881557
25	0x3fb91622d1863a69	0.09799401870098169
26	0x3fcb8b625a12c21b	0.21519116781338785
27	0xbfcb76b57862d760	-0.21456020715930446
28	0x3fcd0bab33268458	0.2269186019666758
29	0xbfc46298d5e12fb5	-0.1592589420637275
30	0xbfd8e3eeed184e1a	-0.38891194490244774
31	0x3ff20c63fb3660bc	1.1280250370964913
32	0xbfaa19b0287b52f9	-0.05097723478471567
33	0x3fc1d65868f02122	0.13935380100179723
34	0xbfd7f928b48bc437	-0.37458245879594493
35	0xbf8252411bd71229	-0.008945950185883582
36	0xbf8b09ee71721be3	-0.013202536427582906
37	0x3fc4b1fe8eae559c	0.16168195692868614
38	0xbfd7dfb4326d2d4f	-0.3730288021513006
39	0x3fc0aa58e80eca44	0.13019858675905216
40	0x3fd143c6e2b419c3	0.26976177348151625
41	0x3fc661824f639b06	0.17485073925418976
42	0xbfd05bcb0ffc404d	-0.25560261307783066
43	0xbfbd9af905474c6d	-0.11564594630117293
44	0x3fc88fe79adf4698	0.1918916231357357
45	0x3fcaa321a3ed595a	0.20810337547545538
46	0x3fc385fa587a3745	0.1525261814135154
47	0x3fbe87f68c50f6f7	0.11926213193597933
48	0x3fa0c12da89275f5	0.03272383387341541
49	0x3fb28cf4dedb8325	0.07246332589012335
50	0x3fb35ea2761a9be2	0.07566275962254523
51	0xbfd1beb98fdc89bc	-0.2772659211060746
52	0x3fa80830e2daece8	0.046937492077143095
53	0x3fd7dbd35f1edbeb	0.3727920941268496
54	0x3fcbe81cc76c4629	0.21802100884865297
55	0xc006775b596ced40	-2.808279703747445
56	0xbfdd058390a5f576	-0.45346154332931776
57	0xbfc7b9805f538920	-0.18534855513196025
58	0xbfdc85e1dab9ef4e	-0.4456715236662959
59	0xbfb79c220013fe8c	-0.0922261476698571
60	0xbfb5dc2a4ddf0438	-0.08539070511962243
61	0x3fbe02d68d0a42b2	0.11723080581055959
62	0x3fc74edfa1488dcc	0.18209452986876185
63	0xbfb8730e2a5f6a4d	-0.09550560507288104
64	0x3fd64db52c057506	0.34849290179211356
65	0x3fd848f42e97bd74	0.3794527487761663
66	0xbfcb0ad544d0e61e	-0.21126809940487673
67	0x3fbc0473a0ed9cde	0.1094429271594097
68	0x3fd8af48414fd58c	0.38569837930784767
69	0xbfdd445fe6525cf2	-0.4572982548938419
70	0x3fbdf22ae76567a6	0.11697643422431145
71	0xbfbcaa7d9984332e	-0.11197648046454553
72	0x3fafcedd3971279d	0.06212512327381534
73	0x3fa83b46540f806a	0.04732723022584724
74	0x3fe006b1a233b248	0.500817124176657
75	0x3fd41a334c9d3a62	0.3140991447625422
76	0xbfe67b615f3c8b31	-0.7025610790336484
77	0xbfca0dc986d84928	-0.20354575237485872
78	0x3fdb9f7fdb5475f0	0.43161007327020595
79	0xbfc1faec512ae518	-0.14047006572017362
80	0xbfdedf477866047f	-0.4823778796927129
81	0xbff13266125bc388	-1.0748043744208378
82	0xbfda83f6085232d5	-0.4143042641888262
83	0x3fcf8b03569d1d10	0.2464298413199022
84	0xbfe32e57a06ea294	-0.5994070180359636
85	0xbfea3fa465d4cf16	-0.8202688206569941
86	0xbf70f9037171f75f	-0.004143727731500706
87	0x3fcc0b0f72ff9008	0.21908753504897072
88	0x3fe484594c976165	0.6411558624195491
89	0x3fd475379441f187	0.31965436437874256
90	0x3fc2e77a0c5684ec	0.1476891098255132
91	0x3fada405194b5368	0.057891997659374195
92	0x3fda0d1bd52c13c3	0.40705009286494603
93	0x3fdfbd4640f8e799	0.49592739434194183
94	0x3fc5323d2154d565	0.16559566619404645
95	0x3f99dc6ade931ab2	0.02525488837707241
96	0x3fe3a3e5d6119528	0.613757055380721
97	0x3fd0ab045f44ac90	0.2604380541185458
98	0xbfda581caabb9bfd	-0.4116279284775713
99	0x3fc4554384ff679f	0.1588520430948934
100	0x3fc37738022bc621	0.15207576852803675
101	0x3fdf5bf94da86546	0.48998863776940416
102	0x3fd7b7b414f4dd2c	0.37058736845524964
103	0x3fdc1e5af90991a9	0.439352744293752
104	0xbfd0195527f58ab0	-0.2515461817003297
105	0x3fbf7df4b886ef83	0.12301568512969933
106	0xbfbf41fb2bd449d2	-0.12210054225969394
107	0xbfe7747407b101a0	-0.7329654836867583
108	0x3fd8784bbd07b1fd	0.38234227619139444
109	0xbfd4b6dae5efbbf7	-0.3236605878327618
110	0xbfbbd559daeb0514	-0.10872422785452712
111	0xbfc21e54d46ec31f	-0.14155063984574043
112	0x3fd7a79eb91c1b06	0.3696057136261718
113	0xbfc4e4c4bcdf1751	-0.16323146078337428
114	0xbfdd7dcd8ad99a3d	-0.4608033996541144
115	0xbfd1d0e01b608b4d	-0.2783737437586538
116	0xbff1893984a69de4	-1.0960021192239475
117	0x3fd1bf7a16e5c1bc	0.2773118232353473
118	0x3fd4794810a81982	0.31990243555664943
119	0x3ff947f1392cb4c5	1.5800640328773607
120	0xbfcca1e6851230b5	-0.22369081018076079
121	0xbfd22669dee807fb	-0.2835945774860417
122	0x3f8846049d6b1908	0.011852298788096252
123	0x3fc503b47bedac2b	0.1641755681151563
124	0x3fde9e74ebcf2be3	0.4784214308571661
125	0x3fa0ab3203e7d6dc	0.032556117035637405
126	0x3fd8bab0dbcae439	0.3863947054301807
127	0x3f6a1e1bff71f090	0.0031881853897726756
128	0x3fc4b9b2974d2a29	0.16191704166188117
129	0x3fc5cb35fd195b87	0.17026400431015196
130	0xbff2d8a831ca7a12	-1.1778947777708066
131	0xbfca0657617985ad	-0.20331852206713333
132	0x3fdc5dcc56a74105	0.4432249876235946
133	0xbfec3da68ed60b31	-0.8825257100837459
134	0xbfc5bb7a67c2ed8b	-0.16978387896038458
135	0x3fb03f76c8e5d285	0.06346838383417193
136	0x3fe9ab868a2c06a1	0.8021881769820604
137	0x3fcfc0a10028a576	0.24806606776955292
138	0x3fb1d12d83ac1496	0.06959804978039794
139	0x3fcc3af770f944c0	0.22054951683325008
140	0xbfd80d3e2a1150b7	-0.3758082781616951
141	0xbfdda01e9b31facd	-0.46289792209419717
142	0x3fdb8bee8017088c	0.4304157496336607
143	0xbfffb9e8a69604a0	-1.982887888647646
144	0x3fe28688933b2f74	0.5789225459679828
145	0xbfdb21355fb03570	-0.42390188545763063
146	0x3fed59ace2440322	0.9171966952563688
147	0x3fc6e003d1749ccb	0.17871139266319455
148	0xbfe68636f4de7d56	-0.7038836271857842
149	0xc0013a467d6a4745	-2.15345476131998
150	0xbf9536096e47fc0f	-0.0207139466820046
151	0x3fc91a72b208198e	0.19611962979270142
152	0x3fd90047f775959b	0.3906421581835617
153	0x3fd53281aa9e919c	0.33120767271091167
154	0x3fc714643e667dab	0.18030980154888473
155	0x3fd0cedfed058d5a	0.26262663027428845
156	0x3fd20de3ce6be2aa	0.28209777029364125
157	0x3f76ee54ba353d6f	0.005598383871372333
158	0xbfc382e1660ce675	-0.1524316547673156
159	0xbfccfa132d121ba5	-0.22638168049544763
160	0x3fd60e87368cc6cd	0.3446367294992399
161	0x3fc29c86225f4f6d	0.14540173223815192
162	0xbfd3fd2d1085cbc0	-0.3123276387552174
163	0x3fd4ac0d8c8acf38	0.3230012772066746
164	0x3fc8a8fb79b97f92	0.1926569313391125
165	0xbfc03c557284b0b1	-0.12684124080386064
166	0xbfe788ee63c08c01	-0.7354652355464851
167	0x3fcb65818691b3b3	0.21403521605261985
168	0x3fe17e398eb1cc75	0.5466583048822843
169	0x3fc84a9b7ec20474	0.18977683724736816
170	0xbfa1ec0735bfe08c	-0.03500387698289939
171	0xbfdc833c9b64de0e	-0.4455100553054486
172	0x3fddcaed7fe843be	0.4655107258886878
173	0xbfd2e23b45ad3107	-0.2950580768999917
174	0x3fd4003e980447d8	0.3125149235285085
175	0xbfad5d5590f6ed47	-0.057352708764904885
176	0xbfd0dda8f3a07d92	-0.26352905074778576
177	0x3fd5036fffbfb3a0	0.3283348081156934
178	0xbfc0466d5bf43913	-0.12714926710072713
179	0xbfc44841d8122ea4	-0.15845511484473207
180	0xbfc9ff31afacd492	-0.20310040548216485
181	0xbf946ef697a75fe0	-0.019954541212285792
182	0x3fb77fbc558e8a36	0.09179284180439926
183	0xc001ae8d8f5de0c7	-2.2102309418224624
184	0x3faee9132f9bbf2f	0.06037197071225219
185	0xbfe031f3c3008077	-0.5060976799613986
186	0xbfd9b3d718c8be46	-0.40160157604529834
187	0xbfd0e79e72c672fb	-0.2641368981219753
188	0x3fdb6f93b7e416e5	0.4286851211366936
189	0x3fe10a118e961236	0.5324790749442119
190	0x3fd4e36a525f699a	0.32638032955369456
191	0x3fb16a84a838c5ad	0.06803158862091747
192	0x3fc4bd824bf7e590	0.16203335484878467
193	0xbfb39eb2813b8297	-0.07664027838792219
194	0x3fe362cd0ed1386b	0.6058106698417424
195	0xbfda5d824f133a51	-0.4119573375909669
196	0x3fd176ecc3309891	0.2728835970068611
197	0xbfe4fde95a9b8d96	-0.6559950608902223
198	0x3fcb5fb8527eb401	0.21385864284584957
199	0x3fd5f5b16497685c	0.3431209070528263
200	0x3f9a5a3d6f65cc80	0.02573486320893581
201	0x3fd5136aaedc02a0	0.3293101031886554
202	0xbfbf8b20138a1df6	-0.12321663357771925
203	0xbf90ec5c6c146bea	-0.016526645752588033
204	0x3fc8f539e46b29d3	0.19498370793583195
205	0x3fdf8eb0fc9e4b08	0.4930841891265776
206	0x3fdc002f8dffc317	0.4375113379201578
207	0xbfc699209e222b2f	-0.1765480777870265
208	0x3fa49da8d7383f3b	0.04026534678643975
209	0xbfc66e76f54edc98	-0.17524611452038097
210	0xbfa4c790b29d6da1	-0.04058506183965994
211	0x3fc1279585081abe	0.1340205096787112
212	0x3fdb14cd9ae5ef34	0.42314472319388874
213	0xbff922769eabd038	-1.5709139059154165
214	0xbfa8894a27fc2d4f	-0.04792243707751231
215	0x3f86f7c6c7fd5c66	0.011214783647728942
216	0x3fd8d97bc83caee0	0.38827414087675827
217	0x3fc16aef6a3b0d22	0.13607590376896278
218	0x3fa238638d0700f0	0.035586462941411656
219	0x3fd6f3c2f352cfd4	0.358628022785749
220	0x3fd32dcbcf38525f	0.29967017399147794
221	0x3fb07a186a259e86	0.06436302749136233
222	0xbfc8e81cf936626b	-0.1945835320336927
223	0xbfc1c696f98e3504	-0.13887297807051635
224	0xbfd1fb3cae562707	-0.28095929169704487
225	0x3fd63364f482a2f4	0.3468868625446213
226	0xbff16dcd18a98c50	-1.08930692323408
227	0x3fdd44c748910f2b	0.45732290350518906
228	0x3fcd1dfea6720003	0.22747786643230947
229	0x3fe387a892185e72	0.6103098729535772
230	0x3fc7a0c974641fa0	0.18459432776603268
231	0x3fd2aede951b74df	0.29192318497901043
232	0xbfda3f6de107b9e6	-0.410121412044559
233	0x3fc0f95cfab7648d	0.13260996095667502
234	0x3fc669a48625c319	0.1750989584939127
235	0x3fcb3cdc34024a87	0.21279480494975564
236	0x3fe17bbc22142b0b	0.5463543572999198
237	0xbfe6d0c1556be39d	-0.7129828136813675
238	0x3fcb97af4322680f	0.21556654718443766
239	0xbfd722077a1cf4fe	-0.36145197796925277
240	0xbfc2ffd9976ee819	-0.1484329213542999
241	0xbfaf0a106e32aaa1	-0.06062365861119657
242	0xbfef8dad58425d24	-0.9860445712865027
243	0x3fb68d1ca264c601	0.0880906959980834
244	0xbfd4cd5dcf4500cf	-0.3250345729939114
245	0xbfb86daf91eace6f	-0.09542367279464668
246	0x3fcaaf697bee8778	0.2084781508574982
247	0x3fe77c606946054e	0.733932691204396
248	0xbfec1a5daf0b79f3	-0.8782185000271155
249	0xbfc1e814a8b12b97	-0.13989504086415813
250	0xbfd175394ad6ce4f	-0.2727797728395886
251	0xbfce684e21457a9d	-0.23755814194278893
252	0x3fb5ab57908770b1	0.08464572218457779
253	0x3fd493134608430e	0.3214767631443899
254	0x3fd452230f68878a	0.3175132418128831
255	0x3fa0c248e18a12b7	0.032732274562510204

fc2.bias f8 [64]
0	0x3fc2f37501cefecc	0.148054719813436
1	0x3fd54ee2f2805193	0.33293985063326054
2	0x3fda8d03cea7688a	0.4148568647484657
3	0x3fcd76105e83d3e3	0.23016552557933698
4	0x3f8767000edf596b	0.011426926092025188
5	0xbf871a3650abed36	-0.011280464493657587
6	0x3fc01eaa3b7b8a77	0.12593582062170913
7	0xbfc4f01e057072c6	-0.1635777975615353
8	0xbfb4d53533c1511e	-0.08137829316666909
9	0xbfa1c06ef396daf0	-0.034671275362986864
10	0xbfba7593db9225fa	-0.10335659132592659
11	0x3fda0c05431431f8	0.4069836764399777
12	0xbfc6914575ac3142	-0.1763083290646908
13	0x3f91bb10517b9e37	0.017315154050178996
14	0x3fb2c4ebf06a61a2	0.07331728572388
15	0x3fabb56606738181	0.054118335998057716
16	0x3fcacb7c2d170d9b	0.20933487130797065
17	0x3fbcc4e5ebf9e0a1	0.11237942706236705
18	0x3fd63dc48a98450a	0.3475200036492231
19	0x3fd6625c7fe7a400	0.349753498942448
20	0xbfdc76b0241abe93	-0.44474414373233023
21	0xbfc35ca48aff514f	-0.151264732236664
22	0x3fd04aa8047cbf14	0.2545566600629041
23	0xbf8e0b6cbd98b353	-0.014670228515649397
24	0xbfac4abb36bac0e6	-0.05525765460095204
25	0x3fce66b4ab38506a	0.23750933037138405
26	0x3fd496dc915f1b8c	0.3217078609126751
27	0xbfa30d7f91b9ea52	-0.03721235898861565
28	0xbfbe94f53db301d4	-0.11946041828469528
29	0x3fc08aa12fa7151b	0.12923064066686937
30	0x3fc04dc1c6562ee3	0.12737295326620943
31	0x3fbb39c2c74bc320	0.10635011067985234
32	0x3fbcacf581972275	0.11201414502932912
33	0x3f9e7c00648f3a9f	0.029769903314270093
34	0xbfc482edefed33e8	-0.1602456494823905
35	0x3fb0b76d9a0c3640	0.06529889117174381
36	0x3fc3bcd3454c6abe	0.15419999011722568
37	0x3fc1b51ad590a232	0.13833938053109446
38	0x3fa223ab4ed415f7	0.035428384182562604
39	0xbfde43aa359d59dc	-0.47287993655973337
40	0x3fab12166de2d01b	0.05287237254506768
41	0x3fc43b57cf7b3cff	0.1580610049336215
42	0x3fcb73ca31b40db3	0.21447112490578277
43	0x3fb0f34d76629cf3	0.06621250286353923
44	0x3fd90b1e17888ae9	0.3913035611932814
45	0x3fc764bfd3e57032	0.1827621254586816
46	0xbfb2423a9ad4a44c	-0.07132307319683767
47	0xbfc51688efbc816c	-0.16475021081806618
48	0xbfc3d53aa790a6a4	-0.15494473630797245
49	0x3fd778385efbbf8c	0.3667126586506064
50	0xbfc4048dc3bd1a6b	-0.1563889699702544
51	0x3fda46eeade0ae11	0.41057936649551247
52	0xbf95bb3a46c5885a	-0.0212220292754711
53	0x3fd4a736719a4f52	0.32270585149784836
54	0xbfd05b8c22c8a3bb	-0.25558761021471427
55	0x3faf559530df0632	0.06119981977054713
56	0xbfc857ec9974e4f7	-0.1901832341480156
57	0x3fc016cd9357c045	0.12569589323493538
58	0x3f4b05adb7a094f4	0.0008246515492415217
59	0x3f903fd72246c001	0.015868531672538214
60	0x3fc4297dfbd10318	0.15751623912549273
61	0x3fd460145312354e	0.31836422073759685
62	0x3fb8e4c846cc0b53	0.09724094131892728
63	0x3fd014d55185a7a7	0.25127156220571084

fc3.weight f8 [121, 64]
0	0xbfc02425677e05e8	-0.1261030917485606
1	0xbfd51b16ced7edde	-0.32977838706548634
2	0x3fd78788c765cec0	0.3676473567240741
3	0x3fdc7c9fe38c33dd	0.44510647984935564
4	0xbfd0e305e2d02c42	-0.2638563837978759
5	0xbfc7357abee1ca45	-0.1813195640603046
6	0xbf639cfbe9a4cc30	-0.0023941917580940983
7	0x3fada194515f7455	0.05787337773629334
8	0xbfc9d11b225c9114	-0.2016939084798045
9	0x3fddc93293bcd5fd	0.4654051249266045
10	0xbf4edaf957e8842d	-0.0009416310784368158
11	0xbfd537e51ae3c2dc	-0.3315365564913415
12	0x3fc7dc3a2b84d2a2	0.18640830159133254
13	0xbfd0e2816d8a2499	-0.2638248033259259
14	0xbfc5156743f395ad	-0.16471567933983292
15	0xbfd3ecab3450df18	-0.3113201151750089
16	0x3fe608dd4c2ce08b	0.6885820853995183
17	0xbfdd998fa450ce7f	-0.46249762579393655
18	0xbfcc258154f2ce65	-0.21989456794618714
19	0xbfc2dbce43ac500f	-0.14733293823576374
20	0xbfd23479d7aba659	-0.28445287763188315
21	0x3fb4c76e159d4aec	0.08116806056686315
22	0x3fb4f35320a2f4c9	0.08183784052649225
23	0xbfbdf0f9914b0ef9	-0.1169582347602577
24	0x3fd4e9f7e90ce930	0.3267802978404175
25	0x3fc961d9a7a57469	0.1982986515603529
26	0xbfabca5e25572a97	-0.054278318460622525
27	0xbf8b05cc0ff9c0bd	-0.013194650876556907
28	0x3fd3c691ca93f82c	0.3089947202969394
29	0xbfd534c7acd5fe9a	-0.33134643438823164
30	0xbfd28c9a753da7fb	-0.2898317475252267
31	0xbfc76022fc26bb2c	-0.18262135803294066
32	0xbfc521f66706e2ab	-0.1650989535389916
33	0xbfa92b8aeee10325	-0.049160329494503587
34	0xbfd93ed170a68e3f	-0.3944591140845865
35	0x3fd101fb648efa89	0.26574597187201526
36	0x3fe3de748f5c3874	0.6209051895146005
37	0xbfc185abfcba4a86	-0.13689184036464414
38	0xbf92a58e4aad78f0	-0.01820967036052762
39	0x3fcfcdc965260ee3	0.2484676116838421
40	0xbfd5a9b96c685790	-0.338484149805816
41	0xbfb19fe199cb2963	-0.0688458443138749
42	0xbfbfe127c693c6a1	-0.12452934835507758
43	0xbfb9d084c5bcfc1f	-0.10083799197762787
44	0x3fc8fd5e29dd889d	0.1952321724339229
45	0x3fe435acac12c7e4	0.6315520630653251
46	0x3fd92ec5eda31f1d	0.3934798069644659
47	0xbfdaeca6fc142df8	-0.4206941091258325
48	0x3fa1df4bdc1cb00a	0.03490674077906426
49	0xbfde84aa1c44f35c	-0.47684719811132026
50	0xbfdedb2aa5bca695	-0.48212686715360437
51	0xbfb6cc1cccbf10bd	-0.08905200957002797
52	0xbfe62c893c315d2b	-0.6929365325585527
53	0xbfbd60efccce598e	-0.1147603869452267
54	0xbfdc9ccf88d138b3	-0.4470709644418875
55	0x3fdbef1e86dbfa9f	0.43646968049862694
56	0xbfe1a799a7ae1fa8	-0.5517090106013613
57	0xbfce95950d9d9ae2	-0.23893988766504665
58	0xbfa45561d7805371	-0.03971391444807793
59	0x3f99c4c9450e0bb6	0.0251647423169847
60	0xbfda82b7470d7139	-0.4142282670852811
61	0xbf716cab937174be	-0.004254026621393679
62	0x3fd1455be6d5df84	0.26985833685420624
63	0x3f611216b9d4a10e	0.002083820711636381
64	0x3fbe0da040212ccc	0.11739541593231023
65	0x3f88482234a8a996	0.01185633395387668
66	0x3fd230f95a23de4b	0.28423913767571624
67	0x3fd21575ab1d1ecd	0.28255979261710423
68	0xbfb78743c06b2f66	-0.09190772483560536
69	0x3fad75710e554b69	0.057536633491188045
70	0x3fae2b2b24002f05	0.05892309965574153
71	0x3f6880a7c8dd52cb	0.002991035179471834
72	0x3fc4a8bf87010144	0.16139978496540597
73	0x3fa19c15a0de49b5	0.034393955123181476
74	0x3fcbfd7894d51578	0.2186728216858389
75	0xbfcff12e9cb931b7	-0.24954779293547144
76	0x3fcfdb5c391da778	0.24888184346064768
77	0x3fbfac6777dcd3df	0.12372442890485001
78	0xbfc3248bfb911655	-0.14955282004864281
79	0x3fb846d5c9f4cba1	0.09483085804531168
80	0x3fc47fe17a21e73d	0.16015261138437067
81	0xbfbc01601a320c16	-0.10939598693407535
82	0xbfc268b413cf6fad	-0.1438202950220079
83	0xbf13bf3f27465702	-7.532904584758515e-05
84	0xbf9a3bd0c504b0e9	-0.025618803048176018
85	0xbfab52ad4add4504	-0.05336514986869115
86	0xbfde21b55086572a	-0.4708073889136012
87	0xbfd17e269dcafe2e	-0.2733246365496339
88	0xbfcb06b070981acd	-0.21114163873445194
89	0xbfb6ab9eb248bf75	-0.08855621197358039
90	0x3fc2ece1c8b20ff7	0.14785406398379994
91	0xbfb62a5bc304fbdd	-0.08658383856980785
92	0xbfe2578bb6a7aa3e	-0.5731867377738309
93	0x3faae15c7cb2590c	0.05250062009979403
94	0xbfbb1bcecf19274e	-0.10589306408033147
95	0xbfd176c78eff7701	-0.27287472691192255
96	0xbfbddf64b3c22fdc	-0.11668996227871226
97	0x3fc26faff3694d98	0.14403342614478443
98	0x3f9a3dc6aa62fb98	0.025626281880927942
99	0xbfd377d68d2df654	-0.30418933665337033
100	0xbfdb7b7d198d3bf1	-0.4294121503380089
101	0xbfd20fcb443c0cd0	-0.2822139898637035
102	0xbfd2899284a061b9	-0.289646749036844
103	0x3fd3c48c6ffbdf18	0.30887137351918303
104	0x3fbd4b78272a9194	0.11443282085617162
105	0xbfdeb43099dd4cbb	-0.4797479155142345
106	0xbfd127ec5f24684e	-0.26806172648651205
107	0xbfc29b13c58a2b97	-0.14535758157248033
108	0xbfcb3e68ba670445	-0.21284207441024897
109	0x3fe1356b8aacf277	0.5377710064418143
110	0x3fb197e79deca704	0.06872413259102578
111	0xbfa773849c5507ca	-0.04580320747710649
112	0xbfd993a3727bb9a6	-0.3996361368180267
113	0xbfd318304616a502	-0.29835135311675753
114	0xbfce86559d1b665b	-0.23847456141702392
115	0xbfd0ee31e927269a	-0.2645382668384656
116	0xbfdac238c9bcee85	-0.41810435963609677
117	0xbfc47bdc64556971	-0.1600299348745682
118	0xbfdf5acef911f41e	-0.48991751025443075
119	0xbfd2612463c1e59f	-0.28717908613142556
120	0xbfc65805c32642de	-0.1745612337949955
121	0x3fd3ebd39b5a283a	0.31126871272192924
122	0x3fd31a0dfb13e602	0.29846524733838475
123	0xbfb488520f6a675e	-0.08020508648260491
124	0x3fd0d7f34557a5f9	0.2631805588885921
125	0x3fdbca3a36c6d5c5	0.43421798085486457
126	0x3fcfbdd4427c2424	0.2479806255944662
127	0xbfcd387183910e19	-0.2282850162902015
128	0x3fbb30ae8e52d5cf	0.10621157622048048
129	0x3fcd5e971ba5e4de	0.22944916582108638
130	0xbfc8e39d1bd398ae	-0.19444621905058085
131	0xbfadcb8cab0e1087	-0.05819358432839388
132	0xbfd0c9376d259308	-0.2622812810789559
133	0x3fca469d8534f194	0.20528000835646465
134	0xbfdf8b5d58961efc	-0.49288114214913015
135	0x3fe2c8ab71cf830b	0.5869958136428023
136	0xbfdea2b606c06593	-0.4786810937817673
137	0x3fe5a7531d8cdbb3	0.6766753747132185
138	0xbfd32c8c9e80e601	-0.29959407309397085
139	0xbfc0826297e2ecac	-0.12897903839425362
140	0x3fbae38ac94a6e0b	0.10503451742481944
141	0x3f98ccfc06718968	0.02421945370986958
142	0x3fc20be18724aea9	0.14098757838052237
143	0x3fd65037328b6f63	0.34864597259524127
144	0xbfa93a8308259cda	-0.04927453493547214
145	0x3fb263c864b7d27c	0.07183506449639226
146	0xbfaaea141dbdc683	-0.052567127829104464
147	0x3fb2d0e3f5e3121a	0.07349991562939132
148	0x3fce373649727d7e	0.23605993830004118
149	0xbfb3fdbcaffa7edb	-0.07809047027921727
150	0xbf57b64eb941bdbe	-0.001447274092267622
151	0xbfa98dbfa1a1e59f	-0.049909580688971326
152	0xbfd83362176bff51	-0.37813617980281317
153	0xbfcedefb9da3fb05	-0.24117989728252823
154	0xbfb516d024a55575	-0.08237934965776168
155	0xbfa86e47c159c6f4	-0.047716371872310065
156	0x3fa4e16740f520ea	0.04078219097078935
157	0xbfd1ee2364fb5dfe	-0.2801598058844944
158	0x3fc612cf3bcf1752	0.17244902057989947
159	0xbfd6fc9361ccdad7	-0.35916599798967525
160	0xbfd76da1978fcc69	-0.36606635857532993
161	0x3fcd100d2584ee13	0.22705234844203
162	0x3facac7e23e1c9d0	0.05600351512920876
163	0x3fdec3a2e75570d7	0.48069069472491094
164	0xbfc511ac4bf74e41	-0.1646018382003707
165	0x3fac97daa83d8eb9	0.05584605506626645
166	0x3fd27a5cd7b9a2b9	0.2887184244814694
167	0xbfe32c026163b50f	-0.5991222288263617
168	0xbfd156c3a76a054e	-0.2709206709769959
169	0xbfccd99a35ab7edc	-0.22539069767571263
170	0xbfcc4950df584dbe	-0.2209874239493796
171	0x3f99ab105fd64cb9	0.025066619729454873
172	0xbfd827f6042e6dc1	-0.377439025958406
173	0x3fd554b7d6408aa6	0.3332957832628075
174	0x3fce82d2e3a6874b	0.23836742511508144
175	0x3fafa499b35d8730	0.06180267633932457
176	0xbfddb2f1db6ad225	-0.4640469210383194
177	0xbf8c239663c4489a	-0.013739752692832053
178	0x3fe1a08136c969e3	0.5508428640417232
179	0xbfe22dc6cfbbed58	-0.5680879647547199
180	0xbfe647b789d32b67	-0.6962545101062972
181	0x3fd88963581fc823	0.3833855019175891
182	0xbfbae18600d7ba69	-0.10500371475766603
183	0x3fd6f4a16b3cba9a	0.35868106338868133
184	0xbfdcb23b58822b3f	-0.44837840693860537
185	0x3fb20a4637a730f5	0.07046927317350422
186	0xbf84dc1ebd1c038d	-0.010185470720445422
187	0xbfd206d14622ea84	-0.2816661057401364
188	0x3fc60d93cf9504eb	0.1722893489441398
189	0xbfd059e49fd6dbee	-0.2554866372042274
190	0x3fc159ca2bfc46a7	0.13555266521193696
191	0xbfd9ca444ccf2655	-0.4029703855600009
192	0xbfb434f92cbfe073	-0.07893330900685828
193	0x3faae72055887949	0.0525446037683986
194	0x3fc4347801a3d791	0.15785121994093435
195	0xbfdec6137d3e3886	-0.4808396075321827
196	0xbfb8a1cc9ce6994f	-0.09621886091790553
197	0x3fbc318a290e5a8e	0.11013091566415253
198	0xbfd549f5fdd7abf7	-0.33263921536735047
199	0xbfdab267603d4980	-0.41713890455607583
200	0x3fad9a0620cf3cd2	0.057815734391277865
201	0x3feef09e78b797c5	0.9668724401242278
202	0x3fb1c59dcd792257	0.06942163721499504
203	0x3fd4a8e4ccae392c	0.32280845630966115
204	0x3fd3adbe5d75bb76	0.30747946860258624
205	0x3fc24fbcb1a59cd9	0.14305838274160612
206	0xbfd610eb0159b71c	-0.3447825921237937
207	0x3fb9b9a8435af37e	0.10048915523925747
208	0xbfadd48cfb4c93f8	-0.0582622582208287
209	0xbfcee42519eba664	-0.24133743062639035
210	0xbfd1508da62fc0ed	-0.27054158429292735
211	0xbfd411c99d866bb1	-0.3135856664973132
212	0x3fe036aa015da64a	0.50667286173593
213	0xbfdde517cf544070	-0.4671077274988482
214	0x3fdbb3429714cbac	0.4328161693003334
215	0x3fd0fe531139a21d	0.26552273447171776
216	0x3fb2e0739b3366e2	0.07373735941964868
217	0x3fab9a98c04eb97c	0.053913854098357
218	0xbfb2b3b6ec57ba60	-0.0730547263153567
219	0x3fc027ac099191e4	0.1262106940004194
220	0xbfd936c19bc02ab8	-0.39396705827736467
221	0x3f8dd1071f78273a	0.014558845184200576
222	0x3fb2e4d61c6012d5	0.07380426590686835
223	0xbfa8e5395b6b32da	-0.04862384072257493
224	0xbfd874cb7f3db981	-0.38212859559907747
225	0x3fc0481a88d2685d	0.12720042877919271
226	0x3f9c2830ea94fb07	0.02749706680082922
227	0xbfd1b36220be896c	-0.2765736884849932
228	0x3fcff4bd64447341	0.24965636630886404
229	0xbfe1e6fef46439d3	-0.5594477437278392
230	0xbfc72ab61e72ce82	-0.18099094855061898
231	0xbfdc5e968d1c1000	-0.44327319889293904
232	0xbfd8a9eafe9bbd5a	-0.3853709684762713
233	0xbfc4977a4643c0d4	-0.16087273054973272
234	0xbfd0a6ebce79ba39	-0.26018805659888106
235	0x3fc9c983f80a4d69	0.20146226512279533
236	0x3fc60d6eff39fb67	0.17228496038657257
237	0x3fbcf84b93dbae3e	0.11316368446176114
238	0xbfc40e010b3b5704	-0.15667737053325237
239	0xbfbf9fbcdf403127	-0.1235311551137711
240	0x3fc25e7fe006357c	0.14350889624294527
241	0xbfd20e03348203cc	-0.2821052563450024
242	0xbfb36e1d0eba5a06	-0.07589894876068834
243	0x3fbe409452689ecb	0.11817290317469113
244	0x3fd46b703409ac27	0.3190575130635715
245	0x3fe49f76fdd36872	0.6444659192595863
246	0x3fd666c1ca5fc6f4	0.35002178919886195
247	0xbfd39d625c02abc5	-0.30648097024339577
248	0xbfd61c9be55fe089	-0.34549615287642915
249	0xbf86d2b24750f8d1	-0.011144058991814284
250	0x3fb853815d8cb827	0.09502419027259688
251	0xbfa6726b79f92f6c	-0.04384170402462825
252	0xbfeb4ac66f7c2f94	-0.8528778245395068
253	0xbfd25532475885b3	-0.28644997565615
254	0xbf9545e281fbf16b	-0.020774401839831407
255	0x3fa46764da314652	0.03985133326990521

fc3.bias f8 [121]
0	0xbfcc352346211a49	-0.2203716366222628
1	0xbfbedcd2bc4d5214	-0.12055699441163653
2	0x3fb4560e71073eee	0.07943811664085462
3	0xbfba10c80c4a2cbf	-0.10181856441538438
4	0x3fa367ae7acb970d	0.037900402536065504
5	0xbfc472d9024996ec	-0.15975487338726369
6	0xbfa0c723f0f7629a	-0.032769320645177305
7	0xbfd1d12b0e983072	-0.27839161324732864
8	0xbfd5e33e8f62a0c0	-0.3419948959585888
9	0xbfd2cefbe3e5a679	-0.2938832974965418
10	0x3fbd4e4365d4f405	0.11447545276764977
11	0xbfcaf91dc2d0a539	-0.21072742474033548
12	0xbfd69fb1d9bae001	-0.353496992709097
13	0x3fc6752bc63bd2b2	0.17545077494982803
14	0xbfadf1729c98cb72	-0.05848272477705664
15	0xbfdad1999247188f	-0.4190429619305939
16	0xbfb398098776d825	-0.07653865391952815
17	0x3fbc0e03358e0fe6	0.10958881433003817
18	0x3fcf629ac4bbb72e	0.24519667249790572
19	0x3f897d485c7dcb4f	0.012445988962758085
20	0x3fcd61c614959c6a	0.2295463181028226
21	0xbfdb790b0a6b10f0	-0.4292628862133503
22	0xbfdbfbe9fc523e66	-0.43725061074017046
23	0xbfd0dd58b14c9bab	-0.2635099154890052
24	0x3fb87a3d15ddac89	0.09561521324001111
25	0x3fc40b93db553d95	0.15660331925981255
26	0x3fc39b05e7ebcbc9	0.1531684286524906
27	0x3fc5a3bc78cfedf4	0.1690593328383866
28	0x3fc9053668624d61	0.1954715737998454
29	0x3fc62e91a05aec1e	0.1732961686119276
30	0x3fb417dff85be145	0.07848930180978637
31	0xbfaed822eaece432	-0.06024273984662222
32	0x3faf1e09af02312e	0.060776045430517164
33	0xbf8af0c879a1501d	-0.013154569827897028
34	0xbfa1da25a5adab94	-0.03486745498124502
35	0xbfc4761646d31170	-0.1598537298033409
36	0x3f83fed4f43431e0	0.009763396933089419
37	0xbfb5b3a596050a3f	-0.08477244293775586
38	0xbf8bf251b95dac66	-0.013645781011027047
39	0x3fb49dc883bb12e7	0.08053258148272456
40	0x3fc92696aba2b967	0.1964901292862564
41	0x3fa923fb6635c025	0.049102646090318815
42	0x3f9d0e9d25505ead	0.02837605991598362
43	0xbfc076731d6be99f	-0.12861479698751752
44	0xbfa286522a8e552b	-0.03618103761179222
45	0xbf9d177d5b69fea6	-0.028409918503256158
46	0x3fa5304b4ecba9a1	0.04138408028468921
47	0x3fd0d3039d5a3fd8	0.2628792797704569
48	0xbfc196bfb4d6465a	-0.13741298990184952
49	0x3fdd9c59f9080244	0.46266793555699715
50	0x3fc8a14652eb5e88	0.1924217133407533
51	0x3fb88b30ebd6b276	0.09587388761310386
52	0xbfc64ce0640f6ff0	-0.1742210854125683
53	0xbfb1c517b4215cdf	-0.06941364429200146
54	0x3faa05b9e048706c	0.050824936512271573
55	0xbfbccbe40adff686	-0.11248612657069587
56	0xbfb406ce7627a8df	-0.07822885880128493
57	0x3fa89a464a8d7302	0.048052021599437125
58	0x3fc302b1a819bb88	0.14851971347840398
59	0x3fb34273a9eba98c	0.07523272417498655
60	0x3f9b8d9480d1c186	0.026907272684583393
61	0x3fc48b8557621078	0.16050783888579523
62	0xbfa83414cc5095ca	-0.047272348347444273
63	0x3fca0873cd0f6534	0.20338294518186617
64	0x3fa23827a8d47fd8	0.03558467803873072
65	0xbfc90e7b1ddbbd34	-0.19575442274024513
66	0x3fd20ae0a03f7001	0.281913906566615
67	0xbfc895e5dd739683	-0.19207452118932986
68	0xbf77644b206ad517	-0.005710881675147015
69	0x3fd193279214f894	0.27460660234272294
70	0x3fc90deb4514db97	0.19573727486723833
71	0xbfbcdb2cf043c5ac	-0.11271935335005051
72	0x3fc573dfa1411635	0.16759868024580418
73	0x3fb182f8e5f7c08d	0.06840472807357596
74	0xbfce07da2cc09a9b	-0.23461463151143822
75	0x3fc1f2a7d57a24cc	0.14021776126563734
76	0x3fb4b111c23b2da3	0.08082686416599087
77	0xbfbfb2841b4824d3	-0.12381768861827717
78	0xbfc91b6477e7b17c	-0.19614845137347092
79	0x3fcd6706eaabde44	0.22970663507998001
80	0x3fc59a25981d4949	0.16876668860875046
81	0x3fd230864485ae97	0.28421169940586694
82	0xbfa9885272adecbd	-0.0498681797971243
83	0xbfb3a65583ccf183	-0.07675680606639017
84	0x3fab25140637aa54	0.0530172593679096
85	0x3f8c33db0092c576	0.013770781474110132
86	0xbfba72c757ca8ba6	-0.10331388371791536
87	0xbfa819df188c5ee0	-0.04707238363897459
88	0xbfd69af616632fd8	-0.35320808588289543
89	0x3fa50d787ccaf3aa	0.04111839793538448
90	0xbfb5fa21fbad3eab	-0.08584797281695937
91	0xbf70c4ad56038d6e	-0.0040938158929039025
92	0xbfbe8be69012e601	-0.11932221429278657
93	0x3f803542730080b9	0.007914084562856126
94	0x3fcefb12cb8e524f	0.24203715266470957
95	0x3fc7305c4fa22aac	0.18116334808685985
96	0xbfc0069a29f1ea60	-0.12520148323149538
97	0xbfd3c5858c024e94	-0.3089307658458236
98	0xbfc2482d65e79806	-0.14282767749608655
99	0xbfbdb251d2daa91d	-0.11600219152265763
100	0xbfba726c01323788	-0.10330843953326341
101	0x3f958e06f1d1e3ed	0.02104960299445573
102	0xbf6567a21b4a84f2	-0.0026128927368779193
103	0xbfbd0e572e0351ce	-0.11350006936419918
104	0x3fc736867bc8e647	0.18135148090532224
105	0x3fd4f7a9910c7b44	0.32761611142079894
106	0xbf92134fa99e3dcf	-0.01765179131285582
107	0xbfd53afda27c9886	-0.33172551029054664
108	0x3fced32894db4d21	0.24081904667273427
109	0xbfc89f11d56e5054	-0.19235442086631116
110	0xbfc52aafe38f2b9b	-0.16536520587245893
111	0x3fb1a0665b1e31c5	0.06885375713881732
112	0xbfbf6cd7411152e8	-0.1227545293671245
113	0xbfc4ba1ff00ecc16	-0.161930076804851
114	0xbf7963b447060612	-0.0061986009681063315
115	0xbfcb097a5e328988	-0.2112267456005379
116	0x3fc6fe6bc6446a34	0.17963931256311272
117	0x3fbe5ce04a5ba536	0.11860467734699828
118	0xbfc4a261c37212ef	-0.16120550196878677
119	0xbfd57e22fb63e226	-0.33582377004452935
120	0xbfc5c8b5bd29376a	-0.1701876805913643
