checkpoints/2022.02.22-22:56:22/best_mean_atomic_component1_model_e46234.pth (torch, 43799 bytes, 6 tensors)

fc1.weight f8 [64, 12]
00000000: 776d 7727 633b 01c0 c4f0 fe0d dcff fb3f
00000010: d649 ef7c f862 e33f d292 3437 0378 ab3f
00000020: 3388 69d0 0e02 fb3f bfd6 ec08 1ce3 b23f
00000030: d654 6144 4860 c4bf cd70 36c2 8c4f ccbf
00000040: 7780 f327 a170 a6bf 3b36 7299 1854 d23f
00000050: e67b f116 acc0 ca3f 01de 202b 5b6a eabf
00000060: a9be f720 b78b ecbf a668 7cac 0dbf 0240
00000070: badf 758d 39d3 db3f 5de8 92d1 b076 a33f
00000080: c26f 77c7 278a 0440 4fd9 d8ce 32ac 913f
00000090: 06a4 2cfe 90b8 aebf acb5 fbd8 7d38 c6bf
000000a0: 02f1 d48d 0cee b4bf 50b3 361b ce7f c73f
000000b0: 5423 1560 e391 d13f e127 456f bd25 c1bf
000000c0: 3516 0e8e 0937 f2bf baa0 edef 4b02 15c0
000000d0: 2def eda2 b771 ef3f 8115 e908 51b6 b1bf
000000e0: 875d af59 2133 06c0 327d 5b37 0e9c c53f
000000f0: 3593 5bbf cf9d ce3f 0e0e df47 562a cfbf
00000100: 2251 f76f 26a9 b53f 66a1 ee0f 7561 cdbf
00000110: 37be e334 4eb6 eb3f 96c2 8882 c52c ddbf
00000120: 094b ca7f 2c7f 12c0 6847 accd 8602 f23f
00000130: a35c 6fb0 19f1 c43f 859e 2fdd 2aaf a2bf
00000140: ab99 bf0c fe57 0640 048e b730 40be ccbf
00000150: 2f92 15e0 c0c2 b6bf c9a3 ca2e a800 c2bf
00000160: 2be1 2de8 af42 a63f 14a4 f884 46b9 ac3f
00000170: 0f11 9e0a 93db ca3f 6489 4eb8 02a8 e0bf
00000180: 0735 7aec 7ae4 d0bf a59b c453 e268 18c0
00000190: ba75 d53d 223f f43f 3ecd 34d0 f435 f43f
000001a0: 6778 cb72 1fac f6bf 6c49 2c97 8b4c cbbf
000001b0: 9f1e 326b cf1b c4bf b296 f6e7 4bf0 ba3f
000001c0: e3d5 2502 bd4b a4bf 7b19 0b7b b22b a63f
000001d0: 6e54 1980 ac9b d23f a6c5 624a 4dc3 8fbf
000001e0: dd02 8e65 853a ef3f a5a8 c5d9 53c6 ee3f
000001f0: 09d7 63ea 9bd6 f0bf eeca 9248 91f1 d1bf
00000200: d882 cc28 fda5 e13f 767b 37fa cbf4 c4bf
00000210: d3d2 4150 e3ed a13f 0819 df39 e63a bcbf
00000220: 4b7a 7496 6f74 cabf 1290 14be 9af2 ba3f
00000230: 7d78 bb10 63bf cd3f c726 5fa0 1dbe d7bf
00000240: d31f 5218 40c6 91bf 844c af54 3796 fdbf
00000250: b7ba 834f 7a6e ecbf 9b38 8d77 b65b c5bf
00000260: a062 4ee2 4e76 0040 c7e6 9d03 0e1a b53f
00000270: c635 11a7 63a0 92bf e7d7 f5ae 2e27 97bf
00000280: e800 7a91 8799 c83f d35a 8d64 08f7 cf3f
00000290: 383f 862f affe c13f a967 3113 0aaf dfbf
000002a0: 3dff 58d1 3b82 b63f 79b9 c54f 4338 e1bf
000002b0: 3d16 62ce fd77 b0bf 48ad aa1a 7421 ff3f
000002c0: 1ab3 9689 4aa7 c9bf e164 1f72 4f54 b9bf
000002d0: b5cd 652c e72e cfbf 01b4 689c 7948 d33f
000002e0: a1bc 84eb a3e4 d13f 85c1 bb35 0e06 d3bf
000002f0: 8dd2 ccaa 4303 d0bf 8b4e bdc2 fb95 a9bf
00000300: ff7a 3479 5583 e73f 8b8f f40c 8358 a4bf
00000310: 146a 90be f280 e0bf 4c49 c8f5 0f3c f53f
00000320: ab75 f77e 94d5 e03f a102 7adc 779f a3bf
00000330: 9b3f a217 273f c7bf fbb5 8cce 3fab c83f
00000340: e2ff 9977 d242 d13f 927a b238 c241 e0bf
00000350: 14fe 828f 4d3e b9bf b1aa 562c d606 c03f
00000360: eae1 8a71 dd07 00c0 c316 1816 ba3b 0a40
00000370: 05b2 02ef 78b9 dbbf 694c 743c 22cc a2bf
00000380: 9298 b75c a8ec e4bf 19f4 bae4 4e51 de3f
00000390: 08e7 6fbe 69cd c7bf 572f 797a f32a d6bf
000003a0: a961 06c2 7b75 b93f eb89 7eac 7a90 d93f
000003b0: e35b 1d05 e730 e63f d641 9bc3 eb7f c0bf
000003c0: dc27 5e56 282d bf3f 2d76 fb9e 1de9 fbbf
000003d0: 49a8 2a0e a64a f1bf c91f 3719 92f9 a93f
000003e0: c88a fec0 a32a f53f 5c5f 8f05 c2c3 a83f
000003f0: 9098 149b 4517 c43f 0e8d b737 1a88 b4bf
00000400: 78c6 9e0d 0a96 b73f 9ebe 5d44 4b99 b73f
00000410: bbfb 2001 6b7f e33f e0e5 3c81 39f4 a3bf
00000420: 4863 dce9 a7ab fd3f 59f7 dcfd f488 db3f
00000430: 5934 a616 938e cf3f 9455 3ae6 158c d23f
00000440: c0af cd12 73d2 eb3f 7bd1 744b b319 abbf
00000450: 13d1 60e3 7240 d13f 3a82 5877 d2ad ce3f
00000460: 6b4d c505 8f22 bd3f 1541 480c 918d b2bf
00000470: a793 d560 3fd1 ef3f 20ff 8cab f2ee f33f
00000480: c680 8e80 7789 ba3f 0281 bae6 36f0 fc3f
00000490: 5aba db39 1199 ee3f 85fd 7ee0 9c29 c1bf
000004a0: 1eac fd62 973b 04c0 35e4 6def 420c de3f
000004b0: 2279 ff67 a1c1 c4bf fbe2 4937 bf38 dbbf
000004c0: b02c d850 f965 c43f e9e4 a374 2b55 a63f
000004d0: caea 56c9 a304 ed3f d123 0e15 1548 e1bf
000004e0: f66c 2869 ec79 a43f 23e6 3aea effa dfbf
000004f0: c745 33d2 2095 f23f 3137 98f7 ef92 d5bf
00000500: 6ff6 5a85 8534 fb3f fd4c dd24 e199 d33f
00000510: 2245 4a4c 6f4e cfbf 2f81 1982 482b d6bf
00000520: 7b84 c123 5729 cabf 71ac 8ab5 9dfa e13f
00000530: e71d 88de ff95 f3bf cd2c 61a9 ed86 d43f
00000540: 2f14 d3d8 377f e93f 70c3 c3c1 2ade e63f
00000550: 2619 7c81 deed f73f ba8a adbc 7e9f e8bf
00000560: c9cd eda4 e62c 01c0 7899 b70c 4bc5 b13f
00000570: 7876 363f fd44 b93f 9d50 f518 c634 723f
00000580: 8576 1d13 900b b73f 5fce a877 dd85 d53f
00000590: 780d 1573 fd00 9dbf a650 930b fd81 af3f
000005a0: 2d11 e536 6d32 f6bf 2f95 d47a cedc e73f
000005b0: 6f30 3cd3 eea6 c13f 681b ab89 beed c03f
000005c0: a509 28bb b589 f7bf 9510 cffe 1d10 d6bf
000005d0: 0017 cdfd 9d4f ce3f 5e52 a535 26f8 d83f
000005e0: bac3 10a8 08d9 c9bf 07b7 ba6c 5a0d bf3f
000005f0: a22e 2d11 8208 bfbf 9bd2 62e6 25aa 93bf
00000600: ca36 b1e5 2bdb f33f dbed b8b5 b213 f93f
00000610: f65c 5ec0 1205 cbbf 62b6 0ac0 b8f9 cabf
00000620: 9f28 5236 1ade e7bf 18bf f8a3 277c 87bf
00000630: d7ac ef36 c443 89bf 989b cb79 0023 b0bf
00000640: 8a5e 8db5 f1ea ca3f 6af8 5439 44e5 923f
00000650: 398a 1aa2 c6ac e5bf 1e38 b304 f9f3 e0bf
00000660: 06db 8100 5d5f 0740 ba03 50b9 efdd fb3f
00000670: 3983 751f 1419 f13f aa0b fa16 e4cb ae3f
00000680: 2245 d298 50f4 ddbf 688c da96 6e19 bd3f
00000690: eee5 1170 8466 cdbf ef8f e710 e6de b8bf
000006a0: 40e5 d8ef e1f7 993f ab46 205b a928 c03f
000006b0: 1c47 4fca 8c86 d53f d414 9226 da74 ed3f
000006c0: 869d 2708 c7b7 e1bf 8b86 5d21 3d65 eabf
000006d0: 3ebb a19d cb7b c93f 214b 8e43 47b0 b6bf
000006e0: 3015 ea61 b549 f3bf f7dc ab91 ec05 c3bf
000006f0: 48c4 a0a5 7ca5 c8bf b73a c92a d543 cc3f
00000700: e35e b9ab 1f53 ba3f 93b1 e5e9 b748 c5bf
00000710: dc88 e4bc d291 bc3f ca84 34fe 96d5 c8bf
00000720: 2f23 f0f3 5c15 ddbf 8b7c 91f7 d0eb fb3f
00000730: 1d47 672d f182 d13f 3991 01aa 8ad6 ccbf
00000740: d397 49f3 8bf3 cfbf 3565 803e d2ea d4bf
00000750: 39d9 7dec fc07 cfbf b1ae 5d27 6921 c93f
00000760: af41 522a c174 d1bf 5d21 ed76 d884 c5bf
00000770: 62fd f71d 8298 d9bf 6458 3edf 3a8e e43f
00000780: dba3 1206 c7a1 f8bf e8af 21e7 0abd febf
00000790: c224 df06 f7cd e13f ce9c 4de6 2984 6e3f
000007a0: 3e02 27ba 3261 04c0 b63f eb72 4a15 ca3f
000007b0: 4a2d c742 0b1a c93f 9c2f b093 d672 5ebf
000007c0: 6c8b c35a a726 d23f f7f7 95c3 3c33 a63f
000007d0: 283c e8d6 4a37 c4bf c5fd 0e10 8ec2 a43f
000007e0: c691 3740 1d50 a53f 33c2 1622 4ffd ba3f
000007f0: ba0a dcb0 45bc b1bf 4245 48d5 af45 e9bf
-2.1539977153130923 1.7499657198632557 0.6058313789492853 0.05364999817746753 1.688002409086505 0.07377791612529004 -0.15918830241085996 -0.22117766840972877
-0.043828045012333776 0.2863828180787526 0.20900488968160785 -0.8254829256392783 -0.8920550960446764 2.3432877994028614 0.4347671395730647 0.03801491316103587
2.5674586852382797 0.017258447527831063 -0.06000187971796582 -0.1735989865768891 -0.08175734007540217 0.18358780220787674 0.2745293081575728 -0.13396423276054661
-1.1384368466400592 -5.252242802504208 0.9826315099921651 -0.06918817966023562 -2.774965954460359 0.16882493689534211 0.2391910251964419 -0.24347952374783727
0.08461227639719884 -0.22953665998398803 0.8660040886879362 -0.45585763690454806 -4.624193188402168 1.125616839799898 0.16360779871931638 -0.03649267148994987
2.792965030286003 -0.22455599192390718 -0.08890920134360479 -0.14064504894966337 0.04347753247469862 0.056101039630739674 0.20982587831907337 -0.5205091094724534
-0.263945322928365 -6.102425869822501 1.265413514650716 1.2631729252869515 -1.4170221790477855 -0.21327347642415917 -0.1570987008492368 0.10522913373150791
-0.03964033747881126 0.04330213310236083 0.2907515765157943 -0.015509227593016938 0.9758936866274684 0.9617099049912851 -1.0523947864398357 -0.2803691109394738
0.5515123173573455 -0.1637206050645223 0.03501806597424708 -0.11027373230817628 -0.20667834135470495 0.10526435032494444 0.23240316693312826 -0.37097874318406493
-0.017357827648566925 -1.849173861312722 -0.8884860566157248 -0.16686135137064614 2.0577676468058854 0.08242881382275434 -0.018189961502050676 -0.0226104063308056
0.19218535045002416 0.249726342294443 0.14058484859969567 -0.495058554404404 0.0879247079947136 -0.5381180341772015 -0.06433092392588775 1.9456673661869264
-0.20041782110401912 -0.09894272361943336 -0.24361886661391244 0.30129852556530073 0.27958009719709237 -0.297244598840756 -0.2501992385835273 -0.049972407838734766
0.7347819678578559 -0.03973779233117999 -0.5157407495456163 1.3271636582254187 0.5260717849557087 -0.038326020873687534 -0.18161476758950532 0.19272611222679345
0.2697034996017448 -0.5080271823279239 -0.09860691789344173 0.12520863690345643 -2.003840338755471 3.279163525209556 -0.4331953367316433 -0.036713666801141916
-0.6538888750917684 0.47371265732709983 -0.18595620917022182 -0.34637152633944396 0.09944890486656867 0.3994433102144785 0.693469533910385 -0.1289038376912816
0.12178279980267298 -1.7444130144352912 -1.080724768961334 0.050732198312800465 1.3229100741233868 0.048368514231411835 0.15696020195281735 -0.08020175800588822
0.09213316757702639 0.09218283099266464 0.6093039533660581 -0.038972661043270795 1.8544081816855442 0.4302341918117825 0.24653853040618648 0.2898001430815722
0.8694396369223725 -0.05293045326326059 0.2695586414804591 0.23967963054112024 0.1138085736359266 -0.07247263479098749 0.9942929164213766 1.2458368970109817
0.1036600769862189 1.808646107943844 0.9561849718136941 -0.1340824218914173 -2.5290973409332898 0.46949838048709874 -0.16215913370155827 -0.42533855819014804
0.15936199614984536 0.0436185436137267 0.9068163807308676 -0.5400491152987518 0.039992702328356985 -0.49969098924666094 1.1614082537602017 -0.3370933454433383
1.7003226479713722 0.3062670574192479 -0.2445811388502444 -0.3463917990211653 -0.20438660856146726 0.5618427797065931 -1.22412096907089 0.3207353738877828
0.7967795595983541 0.7146199974505247 1.4955735261915577 -0.7694696126094052 -2.1469242940017677 0.06941670475462114 0.09870894234924232 0.004444860285122723
0.0900201841991138 0.336295477728731 -0.02832408919244986 0.061538608229655 -1.3873111862495293 0.7457039259940411 0.1379068881436782 0.13225537988747793
-1.4711205778881802 -0.34473371394802516 0.23680472271569641 0.3901458286175393 -0.20193584638903223 0.12129750399136806 -0.12122357291553468 -0.019203750788352108
1.2410086605408872 1.5673091028719373 -0.2110923232364496 -0.2107459008888553 -0.7458621083217344 -0.011467275325315593 -0.01233628552105019 -0.06303408597487559
0.210294927261874 0.018452707289946003 -0.6773408094489418 -0.5297818271444645 2.9215641059521458 1.7416836966296914 1.0686227063053606 0.06014931469419278
-0.46803679393731745 0.11366931136085301 -0.22969108078159145 -0.09715116417606827 0.025359659446825278 0.12624089192882101 0.33633727795414514 0.9205141785938857
-0.553683772971383 -0.8248582507769283 0.19909043499816365 -0.08862729453384734 -1.205495245435781 -0.14861828911646288 -0.19255025946907467 0.22082008923685745
0.10283086721880923 -0.16628168984187805 0.11160008536947735 -0.19401824390755557 -0.4544288999755279 1.7450723333966234 0.27361707147530173 -0.2252972917659777
-0.24961995486518038 -0.3268323526732105 -0.24243127391282274 0.1963321153847253 -0.2727511323255624 -0.16811662489841242 -0.3999333660758194 0.6423620567536656
-1.5394964444369552 -1.9211529759004353 0.5563922056400303 0.0037251299240100627 -2.547460035624936 0.20377474414135371 0.1961072994293807 -0.0018584342458351838
0.28360923637062885 0.0433596600296226 -0.15793738835825022 0.04054683633830395 0.04162684830569989 0.10542769033669046 -0.06927905624255973 -0.7897566953344397

fc1.bias f8 [64]
00000000: 7798 16e8 d8eb d1bf 12c7 769d 9569 c0bf
00000010: 1823 c614 3da1 c6bf b07d a78d 3d50 b7bf
00000020: 5728 f0fe ba99 d33f 12dd fc34 9b2a cdbf
00000030: b168 eec9 65d9 cfbf 8fad 6504 ef58 d83f
00000040: 67ae 9b2b 5a5a d53f e860 6050 51b6 d6bf
00000050: 3425 325a 0e33 c7bf 6689 27ef 420c b6bf
00000060: 64cf 29f9 9c4f dcbf 24c2 36e6 0261 e2bf
00000070: 3ce5 57c5 a665 ba3f 56b4 4056 dc06 c83f
00000080: fdd6 0187 0a56 cfbf c8ef 543f fd8e babf
00000090: a070 5f14 1830 c73f aee5 e273 aaba b43f
000000a0: e29b 2ee6 ef03 acbf 7302 b7ef ef2d 8d3f
000000b0: 79bf 1273 fee3 dabf 93e1 fb3a 36bf ccbf
000000c0: 9108 f486 46ed a43f 75a0 bcda e61a b93f
000000d0: 1f72 220a 8f4b cc3f 8bc4 c78f df08 cb3f
000000e0: 6076 8c2a e646 e13f e673 f009 1fa3 9a3f
000000f0: 3f52 a74d b847 c9bf 0978 0c85 21ef d2bf
00000100: 0ddf b650 dade 983f 6b73 02c9 f89a d13f
00000110: 7fee b649 b310 c9bf 1a83 ea9f 6077 b53f
00000120: 1c2b 8c14 5b18 abbf df71 e570 c81b b93f
00000130: 0099 9ca0 11c1 a1bf f632 35ee 5ba6 8cbf
00000140: 2ca6 ff0d 08d5 d9bf 7f2b f79a b39f cc3f
00000150: 7200 5892 a68d 9dbf 013f 9abb f41d e2bf
00000160: 5246 4410 15a0 c5bf 36d7 2d8c 2396 b43f
00000170: 1a14 f3a9 eb52 e03f d658 42ed 35c4 b43f
00000180: 8348 68f6 1129 d6bf d42e b4ab 861f c23f
00000190: d1cb 59d2 271b cabf 0864 14df c16b c7bf
000001a0: 2777 ef2e d257 d23f e565 0ac6 a5cf aabf
000001b0: f074 b561 0571 cabf 26ec 10f6 de40 a2bf
000001c0: f5f9 e7c2 7367 bfbf 442c 3296 ee2e c23f
000001d0: 556a efad 0587 b93f 9211 42a1 c64d d13f
000001e0: 60c7 3c6a bd61 9f3f b3f2 8ff4 4bee be3f
000001f0: 0c55 2300 8d72 ccbf 24ca d3ed 2492 cebf
-0.28001997628087544 -0.1282221812121454 -0.1767956115184226 -0.0910681219897842 0.306257962191585 -0.22786274039547344 -0.24882194862295173 0.38042807988559785
0.33363966234785497 -0.3548777851988363 -0.18124560741515838 -0.08612459505778744 -0.44235920269351525 -0.5743422027936202 0.10311357801392246 0.18770937167701857
-0.24481326667926587 -0.10374434276758315 0.1811552142597792 0.08097329453712263 -0.05471753773536371 0.014247774603860485 -0.4201656459581425 -0.22458532219003455
0.040872768377100084 0.09806673851255872 0.22105587000705015 0.21120829124950932 0.5399046736744815 0.026012883168835453 -0.1975012187164271 -0.2958453940681243
0.024287615944302 0.27508372907487083 -0.19582215403885425 0.0838528051776958 -0.052920194872134924 0.0980801845193535 -0.0346761234816757 -0.013989179808640877
-0.4036274086671223 0.22362370554614228 -0.028860666925539076 -0.5661567367660326 -0.1689478234698521 0.0804159371599241 0.510122138912837 0.0811189369436279
-0.34625672400682833 0.14158709892250576 -0.20395372172387607 -0.18297599213181592 0.28661017020736995 -0.052365475106124916 -0.2065741278737856 -0.03565117601143468
-0.12267230518771284 0.14205725034512018 0.09971652504410973 0.2703720640932029 0.03064628563806282 0.12082361908683019 -0.22224581248034558 -0.23883496868764198

fc2.weight f8 [64, 64]
00000000: ce92 5177 2a62 f43f abf5 30d7 9d74 edbf
00000010: 07f4 deaa 43f0 f1bf dd1e 0516 2061 c93f
00000020: 6e4a 3655 cf35 f9bf a40b b389 1187 cbbf
00000030: b270 4c19 935a d4bf 5925 10d3 cb82 d23f
00000040: 2b53 a259 c47a d63f 5f2f 0021 f462 13c0
00000050: dd54 1cca 931f ebbf 8f76 06bb 3b4b c83f
00000060: b837 b7e8 1e39 d1bf 6bca c6ac 2a61 d03f
00000070: 6f12 a1c2 e5ad a93f 3d7b 68c3 0d27 9ebf
00000080: 793c 1e32 3989 e13f a0fa b73b 3940 e1bf
00000090: 3198 2e37 30ad a33f 54bb ed26 b48e ed3f
000000a0: cc32 bf06 07d0 e63f 018a 01e5 4043 a23f
000000b0: 28fa 7b1b 10db d9bf 27d7 8924 f44f f2bf
000000c0: d0ec 7844 61e8 02c0 0973 fcb4 0354 e8bf
000000d0: 40a9 852f aabf e0bf c934 b156 31ff fbbf
000000e0: 47aa 9ad6 3133 c93f 4401 bc2b 2201 89bf
000000f0: 4831 32b5 8fe3 14c0 783b d0e7 e402 cfbf
00000100: 9954 024f f444 a43f cf07 b283 f704 da3f
00000110: 159d 8b32 d341 d6bf 49d7 cdcd 7d5d 2cc0
00000120: 752d 854b 2273 b73f d82e b9f9 55ed fa3f
00000130: 3673 98e9 951d dfbf fcd5 5635 a906 edbf
00000140: 8240 bd06 3a71 ecbf 0b84 27ff dbd0 edbf
00000150: fe39 5b31 93d9 80bf e1d5 ab0e 1105 f5bf
00000160: 6e55 84cb 894e dc3f 43d7 bbd2 6712 05c0
00000170: 19a0 4e9b b029 d53f d70d 7988 ac63 e93f
00000180: 97c3 7d66 9979 cf3f a27f 7803 3a01 d73f
00000190: 1435 56b9 f4b2 763f 1a4f f9d3 9242 dcbf
000001a0: cbc8 4091 7722 debf a118 927f 4b43 00c0
000001b0: 7a4e 5d82 0b75 f7bf d66c 94aa e79e e43f
000001c0: c6df 1324 55ca d4bf e661 f239 e805 ce3f
000001d0: 95a9 03bb 3ccb d33f 13c7 5369 db07 e3bf
000001e0: 887e 20bf b00b bdbf b14a 94bf 7d86 d63f
000001f0: 671e 728d 470b c8bf c430 deff 67a9 b63f
00000200: 887b d000 590a ec3f 7672 f838 d820 d9bf
00000210: 3353 132a 733b 9e3f f858 a043 7070 de3f
00000220: 523e 052a 1ffb ccbf 6cfc 6904 da03 e63f
00000230: 3cfe 3559 8da0 d8bf 694a a273 4f67 eebf
00000240: 8e12 9a50 8414 e1bf 3067 57e3 689a da3f
00000250: 0694 55a0 cac9 d03f 71e8 004f c9ca e03f
00000260: 5934 7172 8739 a1bf ec87 117c 4998 cabf
00000270: 688f 5bca 9728 683f edb2 1ac0 2bd4 afbf
00000280: 63f5 0306 ad3e d4bf ac71 2a4f 3ea0 77bf
00000290: 8117 aee8 17b8 e73f 6671 549c d3d6 ec3f
000002a0: c75c e135 3f9a d53f cdad 0539 23aa d53f
000002b0: 086c a3dc e384 d6bf 3592 34bf 6e8a bbbf
000002c0: bb18 d77c 98cc d8bf 3336 cce9 8ab1 d43f
000002d0: e426 38e6 d454 ccbf 4c20 0ada a916 c8bf
000002e0: 4d43 ef6f 0905 cf3f 95de 6edf d449 c4bf
000002f0: 4e5e 1a07 5fe6 e03f 874e 4e77 b3af 05c0
00000300: 6279 5b0f c537 d6bf 5ade a4ec 8362 cfbf
00000310: 138b b112 1e4d f2bf cb79 bbf4 aa49 dabf
00000320: 27c4 c7f5 2573 9f3f f495 c327 8fa7 ddbf
00000330: bb06 5a19 f90f d13f b782 3a3b d8de d4bf
00000340: 0f99 4e48 397e d7bf 1e2f 2f38 537e 9dbf
00000350: 72af 2950 f4f3 b6bf 4492 d54c 1566 473f
00000360: e3b6 fb10 9d49 eebf fcaf c861 beed e5bf
00000370: 58b9 03df 3999 e7bf 3f86 4080 92b0 ab3f
00000380: 3666 c22c 0b30 debf c667 946a c7ef e83f
00000390: d419 cd67 f537 e73f 93a1 805d 3d36 d5bf
000003a0: b4ce def5 1f34 ddbf e36c 9cff 72e7 d6bf
000003b0: 7039 86c7 80f8 9e3f c3b2 fab5 abc3 d0bf
000003c0: 71cb bf9b 5c6e e13f cb34 c9bf 1872 db3f
000003d0: 9c77 b76b 2fd8 c6bf 1ebb 7b7d 0a56 cb3f
000003e0: a1bf 7a72 be4b d5bf ace2 c9fa db4d edbf
000003f0: 9a08 415d 6105 a53f 694b ac9b d0ed b53f
00000400: 7f38 3adc 01dd db3f 1385 4fc4 5615 f33f
00000410: e26c a94e fbe0 e33f 211b df33 2073 c0bf
00000420: b5b4 afd8 a80e cd3f 4b5d 300f 6a36 e0bf
00000430: 86bc 7883 4514 cdbf 82b3 60bd 3b85 c33f
00000440: 8a7a 86bd 72ea af3f 5c28 f59d b3e9 e6bf
00000450: f64b fe96 5a18 d53f 0945 b4e3 af5c cb3f
00000460: c8c3 d99a ca26 ea3f 4882 90f9 6b3e c13f
00000470: 6cfd 7198 4176 dd3f 8fe6 9094 090e c1bf
00000480: a427 391d 445d c4bf 6ade fb42 7e83 cb3f
00000490: bebb 567b ca70 d5bf e570 1d41 0fef d0bf
000004a0: 649b bd6b 8463 c53f 11dc 31f8 14ea e7bf
000004b0: 345d f84c 943e b63f 0e80 7fbf d69c ae3f
000004c0: db2c ac68 43f6 dc3f 82dc 9886 9928 9b3f
000004d0: 1e66 4ef4 f93a cabf 6527 8bea 5acc dc3f
000004e0: 2acf e4f7 2510 cc3f b270 90cf 06e4 a23f
000004f0: 9399 8484 3602 c53f 13b4 aaef c286 ea3f
00000500: 2842 ddd9 7e04 da3f 64d9 24b6 100a e2bf
00000510: 835d 6411 967b cbbf 27d8 f28f 5af8 d53f
00000520: 0f58 e748 09f8 a2bf f45d cbbc 204e d83f
00000530: fbc5 ea98 60e9 dd3f e018 f29a dc2c e1bf
00000540: 0e70 1e62 7257 d83f a42c 7b63 b6f2 c23f
00000550: 8716 684d ee43 d83f 179a 3d3d 760a ec3f
00000560: 5c99 64ee 12aa e33f 9900 e0b8 cdf6 d0bf
00000570: 55f8 1086 bd35 dc3f 6448 5f99 100d d6bf
00000580: acb5 a6a1 efcb c2bf 8ede 86c8 802b e3bf
00000590: 3a24 7257 6359 ad3f de57 fe08 5177 e83f
000005a0: c55f 59a8 e9bf cbbf 0ed5 5c6e 2a62 c7bf
000005b0: 0e41 0f1c 5e5c 873f d8db b8b9 a788 af3f
000005c0: 6c3a bf46 e327 aebf 5506 d7e4 fedb bfbf
000005d0: fee6 51f3 f095 b33f 5c0a a84c 7979 c03f
000005e0: ad8e 5eea 7835 cebf 394f 0ada 5a16 c1bf
000005f0: cb55 48ec 9dd6 c83f fa31 8f45 6213 c2bf
00000600: 095b 5bb4 37b0 a53f 2a45 0f22 d3c0 d23f
00000610: 1fcb 9ca9 60bf d03f 17f0 f07c c543 dfbf
00000620: cc5a 5b83 b3ba b0bf cbb6 7bd5 061e d8bf
00000630: 4ae7 b245 c9d2 e63f b282 d721 62d2 cc3f
00000640: c69e 5020 cad4 d4bf 5717 813c bcf6 cd3f
00000650: 55e6 f97d c29d d03f cb3c 8ce1 a738 d1bf
00000660: 9622 ef4f ee16 b6bf f7e4 81d1 47ea d73f
00000670: 1926 5ee6 4b08 29c0 a85f 9afc d053 8bbf
00000680: 15a3 7016 1aa9 b6bf eb5e bb96 b08e 95bf
00000690: 07e5 6cd0 61f8 e93f fda4 d227 647e e03f
000006a0: 2985 289f 86cb e23f de61 8720 c7e5 e23f
000006b0: 2784 b014 2466 bdbf a9a0 deb1 5327 aa3f
000006c0: c295 888d 35c9 953f d6a7 d2d2 89e9 d5bf
000006d0: cba3 0e7c 2aae df3f 8936 35af 19fa c0bf
000006e0: a448 b1c6 45d1 edbf 13b4 515e 07cf b2bf
000006f0: b487 4431 46bd e8bf 0a3e b30f a720 06c0
00000700: e6f1 3939 8841 e9bf 68ef dd0c 4349 d2bf
00000710: 3013 dfd5 e6cb ea3f 9874 d817 2201 f2bf
00000720: e9bb c56a 846e bebf 643a ec63 00fa f0bf
00000730: 389c 7969 9f26 1ac0 14c4 334d 62e3 e43f
00000740: 29b0 43f2 103b 09c0 e3e1 17df fa12 da3f
00000750: a32e 0636 8bc5 0cc0 dbe6 84c9 e81b d9bf
00000760: 2b3c a701 11f6 1bc0 b5fb 5144 9e3a d2bf
00000770: 86d4 620e 29c7 d4bf 54d7 a07e 9de8 e2bf
00000780: 42eb f018 03fb bf3f a2fc 1340 0784 873f
00000790: f66e 6685 eb41 e13f 47df ccb1 ce33 cd3f
000007a0: a205 34f7 e0d4 ae3f 4f5e 4bc1 6457 c03f
000007b0: 0890 88b9 f12b aebf fa24 cf12 9a19 c0bf
000007c0: bb10 ab07 8f0f ca3f 6ed7 a171 4aea d63f
000007d0: 9da1 878e 1594 ca3f 63b3 4309 fba1 f2bf
000007e0: 700d 392f e48f d4bf e554 0f89 b483 d53f
000007f0: 17d5 d37b 40ba cdbf 271d 45d9 5506 d8bf
1.2739662800678846 -0.9204854205087732 -1.1211582827229465 0.1982765300292532 -1.5756371811482057 -0.21505946372607554 -0.3180282351547802 0.28923316585185926
0.3512431025822475 -4.846634402881903 -0.8476046512102148 0.18979593879787557 -0.2691113731970023 0.25593058464725144 0.050154857643552535 -0.029445853282705093
0.5480009058827725 -0.5390897909527048 0.038430697189412284 0.9236698875737184 0.71289397542713 0.03566935344203515 -0.40399553951275147 -1.1445199420244963
-2.3634667729762455 -0.7602556738744123 -0.5233965805212293 -1.749802912370159 0.19687483767241273 -0.012209193191211505 -5.222227889240749 -0.2422758228207973
0.03958857979265779 0.40655315266496656 -0.3477676385504805 -14.182600432755537 0.09160055488353243 1.682943320733946 -0.48618076145230604 -0.9070631067067434
-0.8888216144205361 -0.9317455275996748 -0.008227491325127009 -1.3137369702429782 0.4422935950727468 -2.6339870894979938 0.3306695477172084 0.7934172311292355
0.245898413700641 0.35944986666617684 0.005541759446157774 -0.4415633268410929 -0.4708537024008705 -2.032858845373156 -1.4660754291880083 0.6443975764881553
-0.32484940074163793 0.2345552714293852 0.3092796160041414 -0.5947091157124497 -0.11345963159737427 0.35195869168198174 -0.18784422308475543 0.08852243420386957
0.8762631431489902 -0.39262967647099545 0.02952365822132492 0.4756127033628128 -0.2264136271646629 0.6879701696597187 -0.3847993251037882 -0.9501111277080102
-0.5337544988875196 0.41567442132292154 0.2623163762821722 0.524754194549372 -0.033642037124629716 -0.20777243192702544 0.002949043718091394 -0.06216561050437073
-0.3163254317040211 -0.0057680543856374715 0.7412223381549979 0.9012239507024276 0.33753948461294353 0.33850937431881506 -0.35186096712794823 -0.10758106392001639
-0.3874875277655396 0.3233363421612438 -0.2213388561361206 -0.1881916346212641 0.24234121289785052 -0.1585031596166472 0.5281214846354005 -2.7107915230533908
-0.34715391635645265 -0.24519394926913912 -1.143827507993312 -0.4107463254894383 0.03071269333480955 -0.46335200198367876 0.2665999171805244 -0.3261013582614782
-0.3670790868876716 -0.02880220442220526 -0.08965994793987678 0.0007140735630569235 -0.9464860278801236 -0.6852714452593314 -0.7374543529274815 0.0540815145070721
-0.4716823517897838 0.7792698938021594 0.7255808856360155 -0.33143552905178203 -0.45630644808555165 -0.3578765388680962 0.03024483888435142 -0.26194279452719743
0.5447218934990429 0.42883890847299416 -0.17847244987109157 0.21356326224437167 -0.33274804286610943 -0.9157543085303437 0.041056673654126644 0.08566001701937655
0.43536421305260115 1.1927097004302751 0.6212135826457621 -0.12851336033619368 0.22700987415683974 -0.5066423699053443 -0.2271811382247259 0.15250345942459026
0.06233557284871434 -0.7160280308828635 0.3296114420456314 0.21376608484619222 0.8172352814127573 0.13471746145025265 0.4603427876208659 -0.13324088815879917
-0.15909625460545584 0.21495035429665005 -0.33500921292118935 -0.2645910392655096 0.16709952603124656 -0.7473244521669377 0.08689238433031649 0.05979033553717282
0.45253071996621735 0.02652206310287087 -0.204924816408309 0.4499728479828405 0.21924280742825292 0.03689595493071475 0.16413003416637348 0.8289503746979129
0.40652438426789894 -0.5637286717890615 -0.21470905160161288 0.3432833104847099 -0.03704861655175772 0.37976854741052013 0.4673692220049756 -0.5367262865336464
0.38033732969211165 0.14803199632146857 0.37914617118108435 0.876277083979235 0.6145109802353477 -0.2650636964244853 0.44078004925166187 -0.34454741456750626
-0.146848634654288 -0.5990604321040836 0.05732260172323618 0.7645650077490662 -0.21679421158000714 -0.1826832808380136 0.011406645995436306 0.06158947126498732
-0.05889806974993381 -0.12445061766541106 0.07650667133739472 0.1287070869730823 -0.2360068458921111 -0.133494717087723 0.1940495876048501 -0.1412165488858504
0.04236005856153297 0.29301908804071053 0.2616807609912701 -0.48851144028935906 -0.0653488345809407 -0.37683268402075204 0.7132307397180082 0.22517038967545983
-0.3254876437735955 0.23409226373967826 0.25962889006004747 -0.2690829947104702 -0.0862873978759445 0.37367434940058736 -12.516204070084358 -0.013343460759003126
-0.08851779029704361 -0.021052130889841186 0.8115700789268495 0.5154286172666215 0.5873444660721009 0.590549052746663 -0.11483979706874035 0.051081290686228194
0.02127536465026992 -0.3423790510956882 0.49500524630508086 -0.13263245635100798 -0.9317959671700646 -0.07347150852884025 -0.7731047594318086 -2.7659436441970273
-0.7892495267583939 -0.2857215524343162 0.8373903443503874 -1.125276654383276 -0.11887385946987163 -1.0610355284913107 -6.537717483565807 0.6527568347793271
-3.153840916338613 0.4074084452290931 -3.596456930221238 -0.3923284500084329 -6.990299249489037 -0.2848277728261864 -0.32465578465355127 -0.5908954117973999
0.1249238906756718 0.011482292788512819 0.539296875521784 0.22814353639273063 0.0602178861390812 0.12766704023555284 -0.05892901792347521 -0.12578130644241253
0.20359981417107584 0.3580499753655805 0.20764417132819527 -1.164546047391206 -0.3212824307595019 0.3361636484599571 -0.23224645658744045 -0.37538667886515714

fc2.bias f8 [64]
00000000: 2044 cd07 d9e7 b23f 59ee b7b4 e784 e13f
00000010: 4d74 414c 5705 e5bf 814d 14da 05b5 db3f
00000020: 9cbc d89b 52b4 d53f 84e5 b5a5 cfa3 a4bf
00000030: 4919 db9e e535 d6bf c45f 8ebd 20fe ec3f
00000040: 19be 138e 115e eb3f ce8e 0375 7ad7 e03f
00000050: 9b72 5651 caa9 b7bf cc2b bba6 aa3d ccbf
00000060: c388 97c9 26ce e23f 221c 54cb 8d0d e53f
00000070: 8bb1 7125 4960 d43f 1505 650a ed40 e13f
00000080: 9a6b 8ead f80c 9c3f 2b41 2f4f 1a00 c43f
00000090: a680 0a7e 8764 a83f 55e6 b4bd 81e8 e83f
000000a0: 94ba d88d 5b83 c73f c8c4 108a e77e df3f
000000b0: c97b 968f 8b83 de3f 9510 64d0 ae68 ea3f
000000c0: 9f59 01ba c3d0 dfbf f2fa 88a2 3181 9b3f
000000d0: 6ce1 ff41 7462 d3bf 623e 85df 78aa d43f
000000e0: f620 6f9a aa33 913f 262e 5f4d d9f1 e63f
000000f0: aea4 f4a9 95ac dcbf e275 6714 43c5 bdbf
00000100: 8d00 afdc 8afb d73f a795 ab14 f5a9 e13f
00000110: cb5e 4942 7020 e33f f1a5 55d9 5faf e03f
00000120: a29a a138 6e07 c1bf ad65 a84b ddd4 db3f
00000130: 46d3 dccd 8de6 b53f ac1d cbfd a9bb bebf
00000140: 762d 169a 7d6d e93f d1d3 b181 b92f b7bf
00000150: 27af 08e6 c97b d2bf 2f5a 6b45 8869 de3f
00000160: c84a 30cc 7605 e83f 087c 4af2 6863 52bf
00000170: 3c3f 3ca2 6d26 903f 2068 b869 938e f13f
00000180: be9c fff4 826e e43f b644 ebc1 1996 e43f
00000190: a1e3 a39a 7391 d03f 207c 4ced 7ae3 99bf
000001a0: 9023 9c96 39c7 dd3f 9be7 f77b 4ce7 e23f
000001b0: 81ea 9c75 a588 e73f 51db 1c85 6771 ce3f
000001c0: cf3a 84eb f585 c83f 55fe 0b2b 4092 dabf
000001d0: eba5 063f df7b cebf f70f 7f7f cfff c73f
000001e0: 5288 25d7 ab77 e13f bf06 64f8 7c09 e23f
000001f0: 5947 94e4 3f55 cd3f bc01 89d9 cdb1 d03f
0.07385021629785671 0.5474737672479463 -0.6569019784325377 0.43292375847632775 0.3391310235919691 -0.04031227968057308 -0.34703960908190773 0.9060214712399035
0.8552329802459467 0.5263035092761699 -0.09243454442771297 -0.22063191548508454 0.5876649796812433 0.657904526830752 0.3183768144288243 0.5391755297679618
0.027393231957471544 0.15625313631472557 0.04764197743975389 0.7783821778495602 0.18369621683219306 0.49212063296279185 0.4767788793778292 0.8252786703237854
-0.49711697735383525 0.026860023064950896 -0.30288416333453116 0.322904794961664 0.016798654247197363 0.7170225630920342 -0.4480337295268083 -0.11629122970722208
0.37472793151028655 0.5519967464176049 0.5977097792301377 0.5214080090346994 -0.1330392624397137 0.4348672140927999 0.08554922367040971 -0.12005102583054023
0.7946155557159915 -0.09057197014210706 -0.28880546058893447 0.4751911809848108 0.7506669986781498 -0.0011223339908281744 0.01577159216600353 1.0973085527134643
0.6384901795508069 0.6433228290062718 0.2588776598127485 -0.025281830533568805 0.46528472621917505 0.590734712720621 0.7354304597023004 0.23783582687038998
0.19158815383749192 -0.41517643169206525 -0.23815527512969878 0.1874942181149206 0.5458583070833447 0.5636582232839017 0.2291641107663576 0.26085230106039226

fc3.weight f8 [4, 64]
00000000: dcc5 9141 02ae 0c40 6b51 506f 89bb e9bf
00000010: ee59 e5f5 b723 d33f 0697 61ec 7c61 d13f
00000020: f903 4e51 89f0 f3bf 5d29 ce39 b51b c9bf
00000030: 08d6 1ff4 11c0 0940 ce5d 0dd1 2303 dcbf
00000040: f9ac c921 d2d5 06c0 7ecc 6486 c628 e4bf
00000050: 822a 6a9e 753f de3f 8d7c 63e6 50be 0940
00000060: 45cd bd37 3bf8 84bf 74f3 4cfb 2141 edbf
00000070: e114 3d6b 69bc f3bf 3912 3642 7e9d e9bf
00000080: cef8 88e7 4ac1 1b40 ca19 b203 aed8 0440
00000090: 6dd5 71db 41a2 0ac0 08d1 5fc0 ac3d f3bf
000000a0: 9c57 ea2f 58b6 b4bf e698 50f0 1e6e c93f
000000b0: 3c0e c613 bc96 12c0 0cca 1b4e dbea d9bf
000000c0: 8f86 e692 5313 0e40 89ab 9428 c6d2 f7bf
000000d0: 4549 bd99 5bf8 1940 be5c ef84 6e45 10c0
000000e0: 0a08 ba9f d69d f83f 5028 1a51 de3b c4bf
000000f0: fc5b 2d42 8540 0540 22fa 2aad 5d43 0a40
00000100: 5149 64dc 05c0 10c0 1c25 a055 a833 f6bf
00000110: 879f 1703 ec85 e3bf 42b6 f2de 16a8 d4bf
00000120: aeb4 7df4 6a34 0140 386d 17ce 3309 10c0
00000130: adca ca3b deae e0bf 2f72 05c7 d837 fd3f
00000140: 3ab2 4c76 8e42 efbf a151 8868 89db 0340
00000150: f289 873c edb2 1b40 b79d 1443 5141 fa3f
00000160: f7e2 a7e5 3e14 02c0 84b0 e2e5 641c 82bf
00000170: 0bb5 01a5 d76c 0c40 fa75 2d79 e5d7 dcbf
00000180: 9c94 30b8 d006 adbf c249 d195 fd64 00c0
00000190: 0011 b069 59eb debf bda0 7d06 3454 c23f
000001a0: 1eff bc4f 5711 c6bf f0d4 2108 d040 fabf
000001b0: 8079 f9b1 9e94 f0bf c514 1461 15ef f9bf
000001c0: 5049 004f ed4f c1bf 6244 5ee3 3b00 b53f
000001d0: 02da ea89 d07c 1040 2891 b64e 9c8f 0340
000001e0: 561f eae3 14da f5bf c6e9 cc5b 9fdf d0bf
000001f0: b3e3 64dd 7644 f3bf e787 5d5e 47bc f83f
00000200: 69b4 585f d00e e43f 0d5f d07e 131f f2bf
00000210: 24fc 39a5 37ca dcbf a775 b154 0870 03c0
00000220: 02f1 9a20 b55d eabf 255a 59ca 3045 c4bf
00000230: 2867 6b5f b246 0a40 653e f90c 8e3d dbbf
00000240: e9bb d510 58a7 07c0 a417 c853 7d90 d23f
00000250: d3c9 e95c 02c9 e03f b5bb d77d 1fbe f53f
00000260: c1a8 1b16 8f8f d9bf fe25 0e80 75db edbf
00000270: 350c 2b27 e658 e1bf 51bc b3d8 8bec ecbf
00000280: 544c c6b7 5ebf 1840 b2fa 18a0 2266 0840
00000290: e4dc 4deb a11d 09c0 9889 b73a 2a72 f4bf
000002a0: 3400 2d08 d526 cbbf 847b 648c e3ee 0d40
000002b0: 164e 1ad9 b878 15c0 5a2b 398b cb58 d5bf
000002c0: 100a fcec 3b39 0840 cef2 e09a ec8c e5bf
000002d0: d47c 0029 e069 1940 6d76 28f2 2cfd ffbf
000002e0: 720f 4c81 6c3f f43f 795c 2299 ab8f f1bf
000002f0: 71da 628e 564e 0240 6e3d 4204 cd8f 0d40
00000300: 8f59 1106 ca5e 0640 83ef fe00 d2cb fdbf
00000310: 92af 56f4 5437 e9bf e798 87fc ae98 e5bf
00000320: 4639 5d34 a3be f73f ae46 16cb 319b efbf
00000330: 8226 4c8d 2a52 0ac0 0fb4 7ff5 b08d fb3f
00000340: 431f d0b7 79c1 eabf 8df2 f790 f970 0e40
00000350: 8d67 50ab de5c 1a40 8c15 5f81 b15b 12c0
00000360: 0137 bc56 369b c9bf 2296 b9b3 8ed1 b23f
00000370: 3eb9 8bb1 8da6 0c40 d9df 6327 dcc1 e3bf
00000380: 1434 fb62 88d4 fabf 27d3 9576 4106 f7bf
00000390: 5a48 70c1 0a8d febf 43d2 fb39 59bd c63f
000003a0: 52d6 115d dbf2 823f e071 4dfa 5c29 bcbf
000003b0: 0ee9 c57c 987c e6bf 0bf7 d0ce d3d7 01c0
000003c0: f172 b8bd 17f3 d43f 1306 69ac 0c45 c73f
000003d0: c291 8465 c0cc 0740 749f d004 b325 0640
000003e0: bd99 8baf 606b c0bf 9d15 61f7 67f9 d03f
000003f0: a39b 658d ed39 0ac0 0769 4eb2 736e 08c0
00000400: c1d2 2012 f9aa 0840 05b7 3586 f990 d8bf
00000410: 4fa0 bbbb 4bb0 a7bf d7ff 0855 9138 da3f
00000420: 3dc3 4cca 9b09 f1bf a9b6 47ab 12c4 a3bf
00000430: 439f 8f43 a7c2 0340 0b31 dd7b 9f5e eebf
00000440: d04e 4414 6022 05c0 94d3 7bae 7768 ba3f
00000450: 3f62 8105 8cb0 db3f aa7f 39aa 8ab8 0140
00000460: 7051 4d86 48be d3bf 77eb f09b d432 f0bf
00000470: d8fd bbe7 c6fa eabf 5b72 1c70 dfa2 ebbf
00000480: d896 c082 22c7 1b40 e6e6 1c70 02ad 0540
00000490: 0885 b69f 4b5a 11c0 7cfa 189a d7a6 f1bf
000004a0: d2b1 183e ac28 a1bf 686f bd56 abea f1bf
000004b0: 63e7 7ba7 0bdb 13c0 e6d9 c683 a37d b5bf
000004c0: 41d1 d1c8 19a7 0e40 5bac 84a3 92d0 b2bf
000004d0: 09c1 10da eff0 1740 0b24 390d f4cc 0dc0
000004e0: 9e09 5bd1 9d22 f63f ab4c da99 4597 e1bf
000004f0: 0fd4 3ed8 7fd6 0340 d23a d29f bf36 1140
00000500: b86c 4212 7cb8 1340 8a15 d50f d8b4 f5bf
00000510: 66be e53c 9c4d e8bf 1706 d8fd 99bb d7bf
00000520: a07c 0f2f 55e3 0140 c9ec cd68 56b9 fcbf
00000530: a7ed 6788 ae83 e33f d9d7 cad0 633b fc3f
00000540: d5c8 f1c4 7046 eebf 24d8 833e 6ff2 0d40
00000550: ca79 c86f 5607 1340 13e3 e228 e6be b9bf
00000560: 5ab5 7413 ac20 c8bf c041 e608 5d43 b3bf
00000570: 8034 c144 265e 0940 bcb6 8e1e 1f5f e3bf
00000580: 4a16 c789 cb6c ebbf 6aec 7923 a4ef fcbf
00000590: d1ba 984a 9d5e f1bf 43e7 e0a5 8f31 a63f
000005a0: 1efb 4ec0 9a84 03c0 31d8 548c 5f75 e8bf
000005b0: 64d2 825e 4302 f3bf 1736 bcbc 67d2 00c0
000005c0: 25bb deaf b8f6 a43f a2d6 41e8 2df4 a03f
000005d0: cbf7 047f 6a21 1140 dadc 179c b344 0640
000005e0: e0e4 d0b0 cee6 e6bf c8ee 5275 59d1 983f
000005f0: df87 8b5c 3cc8 f9bf 3ca8 f59c 8207 cbbf
00000600: 603d 2e25 f9aa fb3f 1fbd 71e8 ee6f f6bf
00000610: 7622 d07f c1b5 b0bf 6952 24af c6ab b9bf
00000620: 826b 968f b6b7 f2bf 7b58 5e81 1439 d6bf
00000630: b2ee 464a 24f0 0c40 b59c 2195 6fcb c8bf
00000640: 112c 22fa 2dae 07c0 55c4 192d 3d76 fcbf
00000650: 81a6 18a9 2726 f43f 18c2 d1c4 77f7 0640
00000660: 94cd 0b2f 0647 03c0 b87f 01e5 f544 f0bf
00000670: 4826 5739 7680 f0bf 7110 d9be e9a6 e9bf
00000680: 4b48 74c6 11ac 1140 4acf 7649 4c0c 0840
00000690: 8f15 678b 8c8d 09c0 d745 261c 3d95 f5bf
000006a0: a1d5 2445 9619 d2bf c7a3 862e 3923 0140
000006b0: df9b 2154 956f 13c0 451a 056e cb5f f5bf
000006c0: 6c99 55e8 b359 0f40 bd0e 5110 98fd 08c0
000006d0: 2ab5 e5f7 159b 1a40 3c63 0a6f a52f 0dc0
000006e0: c472 c846 2444 f73f 665c 7cff cb51 d8bf
000006f0: 9240 44be f830 0640 29e2 2f15 7aaf 0b40
00000700: 5486 da40 3cf8 1040 8fab 0288 1937 fcbf
00000710: 1def ea91 2ae4 e7bf 5789 8469 7a3b eebf
00000720: a915 0449 330e fc3f 0870 d0aa ba78 0dc0
00000730: af3b bc8b d8e8 16c0 8819 3bfd 50f4 fc3f
00000740: 4c42 fa80 4cb3 e9bf baee 110b 48d9 1140
00000750: ba14 6bd4 f6ef 1540 d1ce b6cd 5015 e4bf
00000760: 95d7 f1ee f420 e8bf ed23 912b 71bd 9fbf
00000770: adef 97e9 0a5d 1240 cea2 28bf 3c2a d7bf
00000780: 36c1 02e1 610c bfbf 4fd3 8528 6ac2 fbbf
00000790: a7b0 3bc0 8339 e5bf 25f6 daba a457 d33f
000007a0: ec2c d08f 0ea4 953f fdb3 c674 7d63 c5bf
000007b0: c4f0 9e58 e2c8 e3bf 8aaf b953 d713 01c0
000007c0: f0e8 7860 f97c c03f 26f9 1bad 8b60 cf3f
000007d0: bb0a 417a 15ea 0f40 290a 548e 2544 0440
000007e0: b463 533f eba1 d8bf 6509 ba92 2b31 acbf
000007f0: ba4b 4cc2 9375 f2bf 6e48 d801 ab02 e4bf
3.584965240727554 -0.804142682466176 0.2990550900771315 0.2715751942072163 -1.246224706265137 -0.1961580784084828 3.2187842437949747 -0.4376916448140634
-2.854404701201585 -0.629977476585182 0.4726232573527015 3.2179277419196013 -0.010239088667481364 -0.9142007740225453 -1.2334989727981382 -0.8004752438724331
6.9387623002387055 2.605800656197265 -3.32922717515128 -1.2025573267574732 -0.0809073559742885 0.19867312177775104 -4.647201832736354 -0.40495951297558075
3.759436748180469 -1.4889585099396945 6.492536928346742 -4.067804410085214 1.5385347594569816 -0.1580770393377997 2.6565041704266132 3.2828935173740925
-4.187522357579227 -1.3876117081402475 -0.6100978908916525 -0.3227593590953327 2.1505946255552635 -4.0089866830633625 -0.5213462035956887 1.8261344694393633
-0.9768745718516307 2.4821956793404785 6.924733110211024 1.6409466381390823 -2.2598855916843337 -0.008843220010327231 3.553145684351539 -0.4506772693037814
-0.05669262169275521 -2.0493118004316964 -0.48311457940168623 0.14319467846804015 -0.17240420716734034 -1.6408233945524522 -1.0362841560487084 -1.6208699981810224
-0.13525167806126115 0.0820348196123333 4.1218892621604954 2.445122351595405 -1.3657425787841553 -0.26364883389365124 -1.2042149208266266 1.5459664999148062
0.6268083441006073 -1.1325869516057907 -0.4498423684635233 -2.429703389802586 -0.8239389073201269 -0.15836152916263405 3.2845199064876347 -0.4256320120520967
-2.956710940859456 0.2900689428500931 0.5245372595512044 1.3589167514544276 -0.39938714179028173 -0.9330394269065321 -0.5421019330027607 -0.9038752777540912
6.186884757497939 3.049870730173404 -3.1394689925324304 -1.2778723043089482 -0.21212256335457058 3.741644951645357 -5.367892639380008 -0.33354462238337634
3.027946330491666 -0.6734526658034043 6.353394165663492 -1.9993104419039824 1.265484337870444 -1.0975757581525427 2.288251030341876 3.6952152569498855
2.7962837671322585 -1.8622608221912464 -0.7880043766249278 -0.674888127538705 1.4840423627352535 -0.9876946417372972 -3.2901202238907112 1.722092589359139
-0.8361176099869926 3.8051635099093972 6.5906931655716905 -4.589544316700437 -0.20004920230024228 0.07351009261909572 3.5813249464764843 -0.6174145478571474
-1.6768878809409715 -1.4390272743450596 -1.9094340854831189 0.17765345889314874 0.009252275254975437 -0.1100061522569784 -0.7027094304060328 -2.2303844602128087
0.32733720328705745 0.18179472368687807 2.9749763423044167 2.7684078575293203 -0.12827690669582906 0.2652225414097645 -3.2782851263650215 -3.0539316110781587
3.0834828773753036 -0.38384855371883503 -0.04626690546666678 0.4097026186391281 -1.0648458387697268 -0.03860529270955954 2.4700455930905334 -0.9490506571978882
-2.6417848189683824 0.10315654764037979 0.4326505712283825 2.2151082323834617 -0.308488970903702 -1.0124097911309187 -0.8431124235211724 -0.863631934134513
6.944467585568155 2.70947730625345 -4.338179107203594 -1.1032329577862177 -0.033513434009680446 -1.1197923076897158 -4.963911644875995 -0.08394834487157929
3.8315921486884297 -0.07349506847519775 5.985289962074838 -3.72507486658697 1.3834512880281191 -0.5497158055244616 2.479736031930322 4.303465363699347
4.930160794548264 -1.3566513651324805 -0.7594739140894944 -0.3708252886718539 2.236002319011803 -1.7952484220430043 0.6098244346789458 1.7644994884444627
-0.9460986944743818 3.7433762439714133 4.75716566716296 -0.10056913850975162 -0.18849707555765854 -0.07524663417121413 3.1709714290105353 -0.6053615185571384
-0.8570306483240497 -1.8085061441222714 -1.0855992235116683 0.043346871374935 -2.4397482894995752 -0.7643277874801752 -1.1880525295101956 -2.1027369255960013
0.0409448351559745 0.03311294040842695 4.2826328131468 2.7835457033903426 -0.7156747296750403 0.024236104761014926 -1.6113856902161314 -0.2111666933445252
1.729241509663403 -1.4023274497847706 -0.06527337427554322 -0.10027734542775026 -1.169851838005997 -0.34723389276167155 3.61725671795815 -0.19370837003518707
-2.960048631828166 -1.7788669358963223 1.259315166981111 2.870833909655868 -2.4096797633625986 -1.0168360658208098 -1.0313627471790756 -0.8016251304147898
4.418036557051958 3.0060048808462954 -3.194115723689442 -1.3489352321233719 -0.28281170608837597 2.1421989092673104 -4.858968081046412 -1.3358873651174161
3.9188001776812396 -3.123825194810563 6.651450990100139 -3.6482647585911803 1.4541361584626182 -0.3799924845674866 2.773911940057652 3.460682073138987
4.242417348230067 -1.7634520829112466 -0.7466023302035613 -0.9447605191128713 1.7534668781457674 -3.683949789510738 -5.727388556827392 1.8096475498037723
-0.8031370658009762 4.4621888856597085 5.484340018306449 -0.6276020067075142 -0.7540230433357801 -0.03099610165034854 4.590861940287067 -0.3619529597076906
-0.12128268950869345 -1.7349645216865672 -0.6632708315423955 0.30222433326329884 0.021133639838848348 -0.16709869577371697 -0.6182719927669713 -2.1346880475084093
0.12881390772401557 0.24513383820153328 3.989298777685091 2.5332747573277357 -0.3848827474990302 -0.0550626389131306 -1.1537053670660797 -0.6253256832153633

fc3.bias f8 [4]
00000000: 0d1f 4a39 b4a1 d53f fea4 c7be 9f80 eebf
00000010: 7be7 26a4 bf68 c7bf 509d 2c33 18dd d5bf
0.3379946288555267 -0.9532011724633376 -0.18288417353852168 -0.34161953923690636
